MNIST_CNN_Model.pt (torch, 243944 bytes, 10 tensors)

conv1.weight f4 [6, 1, 3, 3]
00000000: a744 53bd 4a1f 583c c266 533e 4e63 80be
00000010: 98c9 a0be 80ec a53c cda7 93bd 58f5 e93c
00000020: 5668 ebbc 7a43 03bf 2bf6 b2bd a0e6 723e
00000030: 81e5 80be c4dc 51bf ef8f 1abf f216 cf3d
00000040: 1f66 3abe b11c 8abe 5154 753e 94b6 afbd
00000050: 2839 1dbf e462 20bf 47d0 6ebf d506 77be
00000060: 9cb3 ebbe 1158 943e 01c9 ff3e 11c4 f1be
00000070: 51af 89be 7e1c 993e a78c e1be b903 b93e
00000080: c7e9 5b3e a6cc f73c fa48 043f f103 803e
00000090: 5a42 e03e 13bc eb3e 93e7 f63e a0a4 e53d
000000a0: 9aac d8bc e144 e93c 338c bfbe b35a 2ebf
000000b0: 9bab e5be 0a72 933e e0ab 653e df58 91be
000000c0: 09a9 1ebe dddd 933e 3a1c f03e ebee ac3d
000000d0: 5ef0 293b 0456 953d
-0.051579144 0.013191054 0.20644668 -0.25075763 -0.31403804 0.020254374 -0.0720974 0.028559372
-0.028736275 -0.51274836 -0.08738359 0.23720789 -0.25175098 -0.81977487 -0.60375875 0.10111798
-0.18203019 -0.26975015 0.23957945 -0.08579746 -0.6141534 -0.62650895 -0.93286556 -0.241237
-0.4603547 0.2897344 0.4995804 -0.472199 -0.26891568 0.2990455 -0.44052622 0.36135653
0.21475898 0.030248951 0.51673853 0.25003007 0.43800622 0.46041927 0.48223552 0.1121304
-0.02644949 0.028475227 -0.3741165 -0.68107146 -0.44857487 0.28797942 0.22428846 -0.28388116
-0.1549417 0.28880206 0.46896535 0.084440075 0.0025930624 0.07291797

conv1.bias f4 [6]
00000000: 8d43 81be 59d4 c33e 0e9f ac3e e5f2 8ebd
00000010: 72ad 72bd 4b73 95bd
-0.2524685 0.38247946 0.337151 -0.06979922 -0.05924744 -0.07297381

conv2.weight f4 [16, 6, 3, 3]
00000000: 56e9 cc3d dc94 b8bd f8b6 c03d 67a4 99bd
00000010: fafb 97bc 962e f5bd c12d e0bd eea0 95bd
00000020: ed1f 233c 9b7e 35be e7ef 95be 6d7f d3be
00000030: 055f 103e dec8 ddbd 7dd3 12be 021a 9b3c
00000040: 299c 713e d16f cf3d 3cda 81be 4d98 35be
00000050: f04c f8ba 7639 ce3d 42b2 41bd 3de2 913e
00000060: 349e 593e 539d 733e 7cd8 c23e af37 2b3b
00000070: 862c b7bb 3583 c23e 8c7c debe 7287 72be
00000080: 8f53 a3be 00d6 8d3d 1363 ab3d 5c67 453d
00000090: e578 373e 0e13 11be 0d97 a23c 847b 67bd
000000a0: ce3c 793e e053 a53e 9750 acbe 292e 9dbe
000000b0: afb4 49be 0bb2 463e 872b 9b3e 523c 963e
000000c0: 7f78 9ebe 8093 e53c 3847 09be 1d79 65be
000000d0: f9ba 283c b31e 2abe bcf8 11be c743 7c3d
000000e0: 0f2b b13d 5ec5 80bd 9d40 85bd 5697 f1bd
000000f0: 3a5d 313d 5111 7e3d 3d74 22bd ba82 89be
00000100: 9edf a1be 3089 603e fa9e 14bf e1b5 80be
00000110: 4798 373e b052 1abf de1f b7bc c2f4 f43b
00000120: 27f6 b63d 8a25 e3be f71e 4d3c 8abc f1bd
00000130: f869 51bd 464c 1f3e 2f5e 54be ff8f 6e3e
00000140: f46d 2fbd 596b 6e3e 4386 c53d 0211 84be
00000150: cd83 4c3e 70d7 5fbe 124b b9be 4366 373e
00000160: 5491 dabe 1daf f1bc d74f c3be 992a 363e
00000170: baa0 883d 091a c3be 1742 dd3d 282a debd
00000180: b4bf 3abd facf e13d 230d f1bd f857 383e
00000190: af9d 4c3e 0e58 51be 22f8 4e3e 23c1 3c3e
000001a0: a71b 7dbe af3b 773e 09ae 06be 22f1 bfbe
000001b0: 16fa afbd d86b efbd caa4 ab3d 70ca 193c
000001c0: 4010 f4bd 19e5 2dbd 584a b4bd 2ccc 02be
000001d0: 521f b83d 1f99 86be 21e9 923e ce33 aa3e
000001e0: 5108 2fbe d0cf 0cbf bd4c 22bd aa53 d83b
000001f0: fa88 2ebd 902d 86be f947 66be c704 3b3e
00000200: e5a9 753e 0458 1ebe 05ef 96bf 2263 7abe
00000210: 7fd2 d83e 404d a4bd a276 1bbe c5b9 9cbd
00000220: cafc 5ebb 935d 5a3b 3d55 ecbd de31 1bbd
00000230: f51f 98bd 3ac7 35be 77c7 ab3d 5829 1e3d
00000240: 453b 203e 379e f6be a59b c5be 419b bd3e
00000250: 84cd 203e a594 98be ed20 00be be89 103e
00000260: 26b6 023e 6a43 3f3e 771f 54be ad76 d7be
00000270: a477 3b3e 3b27 a43e a319 fd3d 8a14 6ebe
00000280: 6d0e b8bd 7c04 ab3d 5faa babd 4062 8e3d
00000290: 2387 6cbc 91b9 02be 556b 9dbc 7d0b 81bd
000002a0: 1c00 463d 972a 07be adee 7fbd ca35 343d
000002b0: 364e 8dbe 17ba 813e 13a5 713e d2a6 59be
000002c0: 51ef d6bd 56f4 0d3e 0d58 f8bd 653a e1be
000002d0: c350 e63c d02a 24bf efa1 18be 4f7a f3bd
000002e0: 9835 14bf 8ec3 26bf 146e 8f3e d095 49bd
000002f0: b62f c8be d619 1b3b 361e ca3d 9b96 2dbe
00000300: 48f6 95be cd0f 5f3d aaec 36be caf5 093d
00000310: a234 be3e 159a 41bd 99a5 a2bd e88e f2bd
00000320: 30ca 9cbd bfea a13d fdc5 5ebe 2ec9 29be
00000330: 4b2d 22be f441 b4bc 375f 33bc 96ad 7a3e
00000340: 1a47 7c3e 42d3 5b3c 749d c7be aa3d ff3d
00000350: 3e8f 5d3e 490b 10be a938 6c3d b566 b23e
00000360: 6ea7 83bd 9246 fe3d fde4 c83d 9de6 c23b
00000370: 102e cabd 39d8 aa3d 3245 7b3d 3d29 803d
00000380: 4139 56bd 8442 e0bd bd52 e4be 7e40 94be
00000390: 6f60 dfbe 1d4d 69bf 0b7d 743d 9269 11bf
000003a0: 8cab 10bd 1d7c 31bd a3f1 8d3d 9442 d83d
000003b0: 1912 89be 6bef 333e 284c 4dbd f2db 773e
000003c0: cca6 77be b098 b13e 945f dbbd 6456 3abc
000003d0: 99c3 463e 700b e7bd ca44 963e b8ee bd3d
000003e0: 91a9 65be a37e ff3c cf0d 80be a502 ed3c
000003f0: f707 933e 3d7e a7be c7ae 5e3d 8de7 21be
0.10005443 -0.09012768 0.094098985 -0.075020604 -0.018552769 -0.11971776 -0.10946227 -0.073060855
0.009956342 -0.17724077 -0.29284593 -0.41308156 0.14098747 -0.10829328 -0.14338489 0.0189333
0.23594727 0.10128749 -0.25361812 -0.1773388 -0.0018943828 0.100695536 -0.04728914 0.2849292
0.21251756 0.23790483 0.3805579 0.002612572 -0.0055900244 0.37990728 -0.43454397 -0.23684481
-0.31899688 0.06925583 0.08368506 0.048194274 0.17917211 -0.14167425 0.019847417 -0.056514278
0.24339601 0.32290554 -0.33655235 -0.3069928 -0.19697832 0.19403856 0.30306646 0.29342896
-0.30951306 0.028024435 -0.13406074 -0.22409482 0.010298484 -0.16613273 -0.14255041 0.061588075
0.08650791 -0.06287645 -0.06506465 -0.11796443 0.0433018 0.062028233 -0.039661635 -0.2685755
-0.3161592 0.21927333 -0.5805508 -0.25138763 0.17929183 -0.6028242 -0.022354063 0.0074754665
0.089336686 -0.44364578 0.01251959 -0.11803539 -0.05112645 0.1555644 -0.20739053 0.23297118
-0.04282947 0.23283137 0.09644749 -0.25794226 0.19972153 -0.21859527 -0.36190087 0.17910103
-0.42689002 -0.029502446 -0.3814685 0.17789687 0.06671281 -0.381058 0.10803621 -0.108478844
-0.04559298 0.110259965 -0.11770084 0.18002307 0.19982027 -0.20443746 0.20211843 0.18433051
-0.2471758 0.24143861 -0.13152327 -0.37488657 -0.08592622 -0.116904914 0.083810404 0.009386644
-0.11917162 -0.042454813 -0.088032424 -0.12773198 0.08990349 -0.26288697 0.28693488 0.3324265
-0.17093016 -0.55004597 -0.039623965 0.0066017704 -0.0426111 -0.26206636 -0.22488393 0.18263541
0.23990591 -0.15463263 -1.1791693 -0.24451879 0.42348096 -0.08022547 -0.15181974 -0.0765262
-0.0034025186 0.0033319935 -0.115396954 -0.037889354 -0.0742797 -0.1775178 0.08387654 0.038613647
0.1564761 -0.48167583 -0.3859531 0.37032512 0.15703398 -0.29800907 -0.1251256 0.14115044
0.12764797 0.1867806 -0.20715128 -0.4208273 0.18307358 0.3206118 0.123584054 -0.23250023
-0.089871265 0.08350465 -0.09114527 0.069523335 -0.014436516 -0.127661 -0.019216219 -0.06301019
0.048339948 -0.1319984 -0.06248348 0.04399661 -0.27598733 0.25337288 0.23598127 -0.21255043
-0.10494865 0.13862738 -0.12126169 -0.43989864 0.028114682 -0.64127827 -0.14905523 -0.11888563
-0.5789428 -0.6514214 0.2801367 -0.049215138 -0.390989 0.0023666522 0.098690435 -0.16951983
-0.2928946 0.05445843 -0.17863718 0.03368167 0.3714953 -0.047266085 -0.079417415 -0.118436635
-0.07655752 0.079061024 -0.21755214 -0.1658065 -0.1583759 -0.022004105 -0.010947994 0.2448028
0.24636498 0.013417067 -0.38987315 0.12462933 0.21636674 -0.14066805 0.057671223 0.34843984
-0.06428419 0.12415804 0.09809301 0.0059479014 -0.09872067 0.083420224 0.061345287 0.062578656
-0.052300695 -0.10950187 -0.44594374 -0.28955454 -0.4362826 -0.9113329 0.059689563 -0.5680171
-0.03531985 -0.043331254 0.06930854 0.10559574 -0.2677162 0.175718 -0.050121456 0.24204996
-0.24184722 0.34686804 -0.107115895 -0.011373136 0.19410552 -0.112814784 0.29349357 0.092740476
-0.22427966 0.031188315 -0.25010535 0.028931925 0.28717014 -0.327135 0.0543659 -0.15810986

conv2.bias f4 [16]
00000000: 73cf eebd 1607 eb3d a247 953d e577 33bb
00000010: 7a2c d5bd 1f05 913d 18ca a0bc b24a 5cbe
00000020: 3daa d6bd 84c9 503c 42c7 40bc cd3d 05bc
00000030: 13f3 b33b 02a2 ed3d 80dc 0dbc 231c ecbd
-0.116606615 0.11475961 0.072890535 -0.0027384695 -0.10408874 0.07081055 -0.019627616 -0.21512869
-0.10481689 0.012743358 -0.011766257 -0.00813241 0.005491623 0.11603166 -0.008658528 -0.11528804

fc1.weight f4 [120, 400]
00000000: 300a 513d 55b7 873d 2a3f 21bd 9a45 a9bd
00000010: e80f 2c3e 6542 3ebe 0e03 91be 3630 00be
00000020: 23d5 413d bfe4 543e 4e0f 223d b31b 2fbe
00000030: b18a 2ebc 57e6 b13d 2a81 0c3e 97cf b4bc
00000040: 7c5d 173e e964 9a3d 8a87 92bd f1d3 aabd
00000050: 79ca 8c3c 7333 82bd b5dd 4e3c 0f6e e8bc
00000060: b72c 24be 51b6 0abd 747b d5bd 9c35 f5bd
00000070: 140a e4bd 29b0 14b9 1839 d83d fbfa 77be
00000080: b0c1 dfbd 11c6 50be a65b c7bd fc06 5bbd
00000090: 05fb ddbb 1dcc cd3d d6cb 3f3d 13ad f7bd
000000a0: b94b 43bd 02f9 7dbe 64a4 5ebd ebbd 963c
000000b0: c9bc 84be f89b b43c a726 7dbb e8bf 09bc
000000c0: 25c0 233c 03d8 33be d5b5 b43c 58f5 37bd
000000d0: f54b 66be 3d67 37be ae60 40be 5e73 813d
000000e0: a61b 343d 256f 2abc 8ea0 5dbd 47eb e73d
000000f0: 3014 863d bc7c a03c 8bd1 a03c 03d6 f53d
00000100: d094 353c 4269 28bd bde1 6c3e 6780 863e
00000110: d8dc c43c 0446 0dbe bf87 2f3d edba cd3b
00000120: b15b 803d b64d 163c 66db 96bd 4b21 ff3c
00000130: cf9c 4b3d dbae 643d e732 a43d 8b35 86bd
00000140: 89a8 7cbd aa7e 863d b8be e7bb 89ca e4bd
00000150: 0468 19bd 1508 18be 2bc8 0e3e 895d 7d3c
00000160: 0558 cfbd 85f8 5cbe 5886 b8bd 1e8d b23d
00000170: a3cc cb3d 87a9 1dbc 8733 8fbd 3561 72bd
00000180: 3bac 053d 4da4 ef3c a7a5 e3bc 5bab d13d
00000190: f3f2 16bd fde2 97bd a1e9 65be 1431 fdbc
000001a0: d86d bf3d e693 5d3c 7728 fbbd 3bf7 1bbe
000001b0: 9f9c fa3d 4f69 ebbc bea0 1cbd 7910 223b
000001c0: 9552 363e 1776 c33c 631e 9dbd 3691 6f3d
000001d0: c131 d73c 03c5 4ebd b25f 28be cc07 5dbe
000001e0: 10c2 24be bdfd 273d 9756 dcbd 45e7 59bd
000001f0: 9c9d 3ebe c846 b1bc 96c0 71bd 3091 54be
00000200: 0af9 6bbe e19c 8abd 50cf 613d 350d efbd
00000210: ed41 493c 869d 07bd a0e1 ce3d e6aa c83d
00000220: a39d c5bd 3b27 0e3e e6a7 213e 90cf 7f3e
00000230: 5acc 683d faea a03e d54d 7d3e 60f8 96bd
00000240: 074c 253d 4208 b3bd 95c9 a3bd 64e9 f63d
00000250: d3da 4bbd 9af8 debd e16a 5bbd 2c21 b1be
00000260: 0bff cebd decc 3dbe d80a 433e 4ee8 12be
00000270: 5578 09be 796d 9bbc 932c 8f3d 7f01 ab3d
00000280: 2671 99bd 2304 823e e6ba 453e 5c00 a63d
00000290: e2bd c03b c364 adbd c2b2 16bc 8b70 8cbc
000002a0: 8e9b 8ebe 16ac 0fbe 9c67 80bd 31da 21bd
000002b0: e689 0f3e 1a2b 723d 5950 d4bd 5c0a 00be
000002c0: b9a8 8fbd 6327 6dbd 62b1 eebd d186 08be
000002d0: bd22 e3bd 094a 8a3d f1e4 80bd e117 823d
000002e0: 91ee 2c3d 687a 98bd d48d 2f3c 610e 37be
000002f0: 7e46 63be 4dcd 14be db54 abbd 1ba2 4dbc
00000300: 018f 2d3e d837 37bd 1795 4bbd 3ac0 c63d
00000310: 8b3d 193e f843 2b3d 9be2 c5bd 5aa6 b83d
00000320: 9a07 f43b e750 2f3c 6dee e2bc f3af b7bb
00000330: 8dc4 b5bb 6a50 e6bc 7d76 ddbc b674 933c
00000340: 1a28 2c3d 2da3 d43c 6816 033d 406b 15bc
00000350: a7dc 9bbc e15d 0abc c71c 6f3d 53d8 733c
00000360: 5195 8f3d fdf3 883d b766 dc3c 1dc7 59bb
00000370: c397 fcbc e555 0bbd 0200 ac3d 3816 033d
00000380: 1c27 773d e84a ce3d dd56 543e c28d 98bd
00000390: 0aea 95bc 0571 19bd 3285 083d 0cf6 d9bd
000003a0: 288f e7bd 86b1 6d3d 198d 6c3c 6e39 57bd
000003b0: 57ff 1bbe e0fd c73c 26a1 a73d b5c2 cd3d
000003c0: fa07 0e3e 9752 e13d 9f24 023d 0470 bf3a
000003d0: 7ad9 65be 0957 c1bb 128a 88bd 7862 8abc
000003e0: b5ee f2bd d34b 12be aa99 08be 34ae 10be
000003f0: 7514 8dbc 38c2 46be 0ca8 82bc dcb9 9d3c
0.051035106 0.06626765 -0.03936688 -0.082652286 0.16802943 -0.18580015 -0.28322643 -0.12518391
0.047322404 0.20790385 0.039565377 -0.1710041 -0.010653184 0.08686512 0.13721147 -0.022071643
0.14781755 0.07538778 -0.07154758 -0.08341206 0.01718639 -0.063574694 0.012626101 -0.028372793
-0.16032682 -0.033865277 -0.104239374 -0.11973116 -0.11134735 -0.00014180005 0.10557765 -0.24216835
-0.10925615 -0.20388056 -0.097342774 -0.053473458 -0.0067743086 0.10048697 0.046825252 -0.12093558
-0.047679637 -0.2480202 -0.054355994 0.018401107 -0.25925282 0.022047028 -0.0038627775 -0.00840757
0.009994541 -0.1756287 0.02205936 -0.044911712 -0.22489913 -0.17910476 -0.1878688 0.06320833
0.04397168 -0.0104024755 -0.054108195 0.113241725 0.06546819 0.019590728 0.019631168 0.1200371
0.011082843 -0.041116007 0.23132987 0.26269838 0.024031088 -0.1379624 0.042854067 0.006278387
0.06267489 0.009173801 -0.07366066 0.031143805 0.04971009 0.055830818 0.08017521 -0.06553181
-0.061684165 0.06567128 -0.007072296 -0.11171443 -0.037452713 -0.14846833 0.13943546 0.015464195
-0.1012421 -0.21579178 -0.09009999 0.08718322 0.09951141 -0.009622938 -0.0699225 -0.059174735
0.032634955 0.02925315 -0.02778895 0.102377616 -0.03685279 -0.074163415 -0.22452404 -0.030907191
0.09347123 0.013524031 -0.122635774 -0.1523103 0.12236904 -0.028736738 -0.038239233 0.0024729057
0.1780494 0.02386002 -0.076718114 0.058488093 0.026268842 -0.050480854 -0.16442755 -0.21585006
-0.16089654 0.041013468 -0.10758703 -0.05319907 -0.1861481 -0.021640196 -0.059021555 -0.2075851
-0.2304422 -0.067682035 0.05512935 -0.11672441 0.012283784 -0.03310921 0.10101628 0.09798221
-0.096492074 0.13882153 0.15786704 0.24981523 0.05683551 0.31429273 0.24736722 -0.073715925
0.04035571 -0.087418094 -0.07997433 0.120562345 -0.049769234 -0.10887261 -0.053568725 -0.3459562
-0.10107239 -0.18535182 0.19047105 -0.1434643 -0.1342481 -0.018973099 0.06990924 0.08349895
-0.074922845 0.2539378 0.19309577 0.08105537 0.005882011 -0.084664844 -0.009197893 -0.017143508
-0.27853054 -0.1403049 -0.06269762 -0.039514724 0.14017448 0.059123136 -0.103668876 -0.12503952
-0.07014603 -0.05789889 -0.11654927 -0.13332678 -0.1109061 0.06752402 -0.06293667 0.06352211
0.042219702 -0.07445222 0.010714967 -0.17876579 -0.2219486 -0.14531441 -0.08365794 -0.012550856
0.16949083 -0.04473099 -0.04970273 0.09704633 0.14964883 0.041812867 -0.09662362 0.09016104
0.0074471952 0.010700441 -0.02770158 -0.0056056916 -0.0055471123 -0.028114516 -0.027034039 0.017999988
0.04203043 0.025956715 0.03200379 -0.009119809 -0.019026114 -0.008445234 0.058377054 0.014883119
0.07010902 0.06687162 0.026904447 -0.0033230253 -0.030834084 -0.034017462 0.08398439 0.03200361
0.060340032 0.10072881 0.2073626 -0.07448913 -0.018300075 -0.0374613 0.03333015 -0.10642633
-0.11306602 0.058030628 0.014437937 -0.052545004 -0.15234123 0.02441305 0.081850335 0.10046903
0.1387023 0.11002081 0.031773206 0.0014605527 -0.22446242 -0.005900268 -0.0666696 -0.016892657
-0.11861936 -0.14286737 -0.13339868 -0.14128953 -0.017221669 -0.19410026 -0.015949272 0.019253664

fc1.bias f4 [120]
00000000: c99f 13bd 70a2 8e3d 9534 35bd afb1 1b3d
00000010: 2121 0fbd 4985 2e3c 3cc5 10bd 1ed8 86bc
00000020: 9fa7 033d 0e59 a3bd a324 5b3d 45a6 c8bc
00000030: 7465 66bd 3867 523b 25ca efbd fd0f 95bd
00000040: 2deb 0abd 191e ec3c 0b8e 78bd 6dc7 bdbd
00000050: 3a76 c83c 4803 983d 78b5 c43c 2877 e2bc
00000060: fca3 e4bb b644 b9bc 0b82 09bd 63d0 ec3c
00000070: 8aa2 eb3b c7d2 15bd cfb5 b2bd 081d 45bd
00000080: a4f4 fa3b 41a5 1cbd 6cec 243d 7205 9cbb
00000090: 2f10 8ebd 699e f33c fd1a af3d 7c7e 8e3c
000000a0: fc7e 1ebe 6921 1fbd b30e 9bbc 3d55 16bd
000000b0: 4aa0 bd3d 1529 f4bc 3b2e 933c 5ad0 24bc
000000c0: a438 d3bd 2393 85bc c682 74bd 5e99 9abc
000000d0: d06b 0dbe 88ed 07be 49e3 4bbd ded6 23bd
000000e0: 6f3e 093d c2a7 813d d21c bcbd 92f0 1d3b
000000f0: bc0a 3cbc 8790 2bbd f05d c5bc 47a8 3dbc
00000100: 0ab4 163c 17a4 28be a8b9 75bc fea0 be3d
00000110: 7959 463d 34af 1dbd 890d edbd f893 c4bd
00000120: 5d9f 0a3d eff3 973b 3071 c7bd 0c1e 8b3b
00000130: c435 36ba 0de1 f6bd c8c5 fe3c 1a3e c4bc
00000140: d9e9 b43c 349a a7bd 4f5d 1bbd 5826 03bd
00000150: 2c51 40bd 5091 89bd f20a f83c 312b db3c
00000160: 395f 12be efb3 043e e216 03bd 9a11 613c
00000170: 172a 61bd dcb4 67bd 51f9 37bd a975 48be
00000180: f327 6d3b 0208 3abd 4dde a83d ee1e 49bd
00000190: e30e 40bd 7fe7 d63c 4ecf 81bc 62b0 c8bd
000001a0: 0f0f 083d 2e44 94bd 6390 4dbc 1cac b3bb
000001b0: e545 8dbd 8661 a63d 8c24 1dbd 958f 31be
000001c0: 0797 c93d 7c24 c0bd a414 9ebc 73cf e63d
000001d0: 3701 ebba 130a bebc 0986 09bd 67d6 bcbd
-0.036041055 0.06964576 -0.0442396 0.03801125 -0.034943704 0.010651895 -0.035344347 -0.016460475
0.032142278 -0.0797597 0.053501736 -0.024493346 -0.056249097 0.003210498 -0.11708478 -0.0727844
-0.033915687 0.028822945 -0.060682338 -0.09266553 0.024470437 0.07422501 0.024012312 -0.027644709
-0.0069775563 -0.022615772 -0.033571284 0.02890796 0.007191007 -0.036577966 -0.087260835 -0.04812339
0.007658558 -0.038243536 0.040264532 -0.0047613913 -0.069366805 0.029738622 0.085500695 0.017394297
-0.15478128 -0.03885022 -0.018927908 -0.036702383 0.09259088 -0.029804746 0.01796638 -0.0100594405
-0.10313538 -0.016305512 -0.059695028 -0.01887196 -0.13810658 -0.13274205 -0.049777303 -0.039999835
0.033506807 0.063308254 -0.091851845 0.002409969 -0.011477169 -0.04188588 -0.024092644 -0.011575765
0.009198198 -0.16468845 -0.014997877 0.093080506 0.04842517 -0.038497165 -0.11574847 -0.09598535
0.033843387 0.0046372334 -0.09738386 0.004245525 -0.0006950761 -0.12054644 0.031100169 -0.023955394
0.022084164 -0.08183709 -0.037930783 -0.03201899 -0.04695241 -0.06717169 0.030278657 0.026753994
-0.14294137 0.12959264 -0.032004245 0.013737107 -0.05497178 -0.056568965 -0.0449155 -0.19576134
0.0036187142 -0.045417793 0.082455255 -0.049101762 -0.046889197 0.026233433 -0.01584592 -0.09799267
0.033217486 -0.07239567 -0.0125466315 -0.0054831635 -0.06898097 0.0812407 -0.038364932 -0.17339928
0.09843259 -0.09381959 -0.019296952 0.112700365 -0.0017929439 -0.023198163 -0.03357509 -0.092205815

fc2.weight f4 [84, 120]
00000000: b156 543e e7c0 803e b800 08bd bfd5 89be
00000010: 4db1 153d 57e0 b2bb c0d0 b3bd 0cfb b4bd
00000020: 7842 673c 454b 6e3d 53e9 523c bab2 c0bc
00000030: 7a5f 47bd 53a4 c8bd 4a4f 6c3e 4bec 113d
00000040: 93d0 a23c 1977 903e e3b4 6c3d fa8b bd3d
00000050: 63e7 ac3c 837a 88bd b108 5e3d c694 d0bc
00000060: 0641 e2be 2881 13bd 7f70 95bd 8a29 573e
00000070: 21fa a6bb eb19 22bd c0ee bdbe e0d1 3a3e
00000080: 5711 a9be deed 203d dc95 31be 4ce6 64bd
00000090: 54d9 f2bc 7591 51bd 51c4 8cbe 7e42 54bd
000000a0: 57de 8bbe 1a5c 52be 2ce4 c83d a83c a0bd
000000b0: ca3d 92be 0e93 febd e799 dcbc 2b43 c9bd
000000c0: 05d8 7bbd d91a 903d 283a 12be a556 ba3d
000000d0: 6b40 f73d 5e58 123e 64d7 c9bd 8498 05bd
000000e0: 9995 923e 408a c3bd 7989 5e3e 0039 533e
000000f0: b552 943d b83d e6be 2440 113e 39a5 8dbb
00000100: 9d8e 72be 65b6 a03c e80f efbc ec9c 56bd
00000110: d68f 59bd 9c74 5c3d e3c2 4b3e 3cb7 15bd
00000120: 4f52 7fbe 9b62 2dbe c181 d7bd ad6b c43d
00000130: e3ab cf3d 686d edbd 185e 11bd 9539 80bd
00000140: 8215 28be 7095 c03d ddc5 b1bd 66d2 c1be
00000150: 94d0 983d 6e40 b63c 8e6c a7be 8466 8f3e
00000160: 7f9a 563a c7eb 0e3c c96c fc3d f8bf 303e
00000170: aeca 163d 6ea4 963a 5c71 be3d a852 e93d
00000180: 0aa7 94bd ad1f b8be 3271 853e 6560 113a
00000190: ae13 373d 1c6d 1b3e aa39 55bd 7e45 293e
000001a0: 3708 e63d b24a e3bd 9ec5 553d 5ae6 df3e
000001b0: e331 04be f3c5 cd3d 16d2 b23d 97a2 d63d
000001c0: 4875 35be 97c7 44bc 6e4d 6c3e 806c 083e
000001d0: 6988 303d 4e1a 803d d702 633e 9e22 263e
000001e0: 8cf9 833e e0c0 97bc 480c cbbe eb9c 913e
000001f0: 7d51 f1bc ac02 96be 8bc5 ba3d acad a8be
00000200: 12b9 b6bd cba7 08bd 74f0 77be c83c b9bd
00000210: 847e 0bbd 1925 0f3e ef2d 883e e2b1 9e3c
00000220: 08b6 323d 5e61 fabd c148 a13d b6ca 63bd
00000230: 142d ecbc 1535 96bd ed0b b43d bf93 89bc
00000240: 3182 95be 8e8a 7fbd fc87 05be ce18 cfbd
00000250: 4967 a43d 17c0 4cbc 657d 25be 7be6 2b3e
00000260: 8bd7 e13d f75d 863d 1aec 49bd 5f7b ce3d
00000270: 72e0 27bd b7a3 a63d 0c50 c83d eddf 99bd
00000280: d509 33bd f6c7 873d ce4f 8f3d a3f5 a1bc
00000290: e788 34be 385e 0abe cc99 883d e401 683d
000002a0: 6676 e9bc 6082 6bbb 33fb 7cbe eb8a b4bd
000002b0: 7dec 5bbd e868 c3bd aefe cd3c 5e9f 783b
000002c0: 8108 88bc 76af 123e 481b f4bd 332c 923e
000002d0: c1ee d13c 8c7f 88bd 9041 883e 994e 583e
000002e0: 61b1 c23c 01b7 d33e 6916 9bbe 2e96 793d
000002f0: d9c6 f6bd ded9 acbc 4e4e fc3d 0047 4b3d
00000300: 5c77 473d ae84 433d c225 7ebd 260c 73bd
00000310: ad7e 5fbe 2cd7 93bd 54a2 253d cf1a 92bd
00000320: 9f44 17bf 3180 9f3d aabc 69be 405b 91be
00000330: 3a70 4b3d 732f 2c3d 3dd6 debd 5776 273e
00000340: f0da 273e 1dc8 003e 164c d2bd 32c1 753e
00000350: 423f 3d3d 6489 803c 48c0 53bb f69a a23d
00000360: 50be 493e 6bdc 883e 9405 063e 561b aebb
00000370: 264d 823c b18c 773e 2f3f 09be 0082 1dbd
00000380: fcbe 73be 9cd7 09be ebc4 a1bd 93b1 473e
00000390: 9216 613b 28a6 113e 586f 33bd a502 cebd
000003a0: a15f 6cbe 7198 1a3e 2216 d23d 0814 babd
000003b0: 3d0a a13d 2599 b5bd f2da 813e 9f9e 4cbe
000003c0: 094d 263d b1aa e9bc b703 163a df48 cd3c
000003d0: 24f0 303d fe3b b93d f41b f8bb 1fd4 c2bd
000003e0: 275c 8b3d 420e 67bd 3f7a 15be 3e0e d4bd
000003f0: 4b92 433d ea8c 82bd 2ef2 7c3d 3617 34bd
0.20736195 0.25147173 -0.03320381 -0.26920888 0.03654604 -0.0054588723 -0.0878005 -0.08836946
0.0141149685 0.05817725 0.012873012 -0.023522723 -0.048675038 -0.09796967 0.23077121 0.035625737
0.019874847 0.28215864 0.057789695 0.09255214 0.021106428 -0.06663992 0.054207508 -0.025461566
-0.44190234 -0.036011845 -0.072968476 0.2101194 -0.0050957357 -0.0395755 -0.37096214 0.18244123
-0.33021042 0.039289348 -0.17342323 -0.05588369 -0.029644646 -0.05116411 -0.27493528 -0.051821224
-0.2731807 -0.20542946 0.09809145 -0.07824069 -0.28562766 -0.12430392 -0.026928855 -0.098272644
-0.06148531 0.07036371 -0.14279997 0.090985574 0.120728336 0.14291522 -0.098555356 -0.032616153
0.2862976 -0.095478535 0.21732129 0.20627213 0.072423376 -0.44968963 0.14184624 -0.0043226746
-0.23687215 0.019618222 -0.02918239 -0.052395746 -0.05311569 0.053822145 0.19898562 -0.0365517
-0.24933742 -0.16932146 -0.105227955 0.0959085 0.10140207 -0.11593133 -0.035490125 -0.06260983
-0.16414455 0.09403503 -0.086803176 -0.37855834 0.07461658 0.02224752 -0.32700008 0.280079
0.0008186474 0.008723206 0.123254366 0.1726073 0.036814384 0.0011493096 0.09298965 0.113927186
-0.07258423 -0.35961667 0.26062924 0.0005545675 0.044696502 0.1517834 -0.052056946 0.16530415
0.112320356 -0.110982314 0.052190416 0.43730432 -0.12909655 0.100475214 0.08731477 0.1048023
-0.1772052 -0.012010477 0.23076412 0.1332264 0.04309884 0.06255017 0.22169052 0.16224143
0.25776327 -0.018524587 -0.39657807 0.2844003 -0.029457802 -0.29298913 0.091197096 -0.32945
-0.08922018 -0.033363145 -0.2421282 -0.09044796 -0.0340562 0.13978995 0.26597545 0.01937193
0.04363063 -0.122256026 0.07875205 -0.055613242 -0.028830089 -0.07334343 0.08791337 -0.016794084
-0.2920089 -0.062387995 -0.13040155 -0.10112153 0.080275126 -0.01249697 -0.16161115 0.1678714
0.1102744 0.06560891 -0.04929743 0.10082125 -0.040985532 0.08136695 0.09780893 -0.075134136
-0.04371055 0.066299364 0.069976434 -0.019770449 -0.17630349 -0.13512504 0.066699594 0.056642428
-0.02849884 -0.0035935864 -0.247052 -0.08815559 -0.05369233 -0.09541494 0.025145855 0.0037936787
-0.016605617 0.14324746 -0.11919266 0.28549346 0.025626542 -0.06664953 0.2661252 0.21123733
0.023766221 0.41350558 -0.30290535 0.060934238 -0.12049646 -0.02109998 0.12319623 0.049628258
0.048697814 0.047733955 -0.062047727 -0.059337758 -0.21825667 -0.07218775 0.04043801 -0.071340196
-0.5908908 0.077881224 -0.22825876 -0.2838993 0.049667574 0.04203744 -0.108807065 0.16353737
0.16392112 0.12576337 -0.102684185 0.2399948 0.046202905 0.015690513 -0.0032310653 0.07939713
0.19701505 0.26730666 0.13088065 -0.0053133173 0.015905928 0.24174763 -0.13403009 -0.038454056
-0.23803324 -0.13461155 -0.07898887 0.19501333 0.0034345728 0.1422354 -0.043807358 -0.10059098
-0.23083355 0.15097214 0.10258128 -0.09085852 0.07863281 -0.088671006 0.25362355 -0.19982384
0.04060081 -0.028523775 0.00057225995 0.025059162 0.043197766 0.09044646 -0.0075716916 -0.09513115
0.06804686 -0.05641008 -0.14597414 -0.10354279 0.047746938 -0.063745335 0.061754398 -0.04396745

fc2.bias f4 [84]
00000000: 1093 933d 5de1 04be 177a efbd 1f7e 3c3c
00000010: 0b5f 273e c16e 073e 9c99 3abe 78b8 1fbe
00000020: 1df5 f43d 98c0 e53d a7df f0bc 78a6 43bd
00000030: 9306 023d 1f5e 9fbd 1eb7 25bd 213a 3c3b
00000040: 1da7 bc3d 25ac fabd 7bb5 85bd 2031 de3c
00000050: 8a1d 053e 65a4 03bc 1b7a cebd 9e89 acbd
00000060: 98de 0d3d 4102 c83d ebce 72bd 3b8f 2abe
00000070: d7a6 89bd 7726 263d 542d 9b3e 75f5 663e
00000080: 2c0e 31be 1484 cbbc 0160 e23c e36c c0bd
00000090: f8d8 4cbd c341 68bd 23de 60be 34a0 5bbc
000000a0: 532e 1ebe 5092 e3bd 1b2d 02be 4531 db3d
000000b0: 4e80 4b3d d1e0 e23d f1db 95bb dd1f 69bd
000000c0: e985 f43b 090d 0e3e 24f9 19be 298e e9bd
000000d0: 118e 08be ad51 90bb 532d 2fbe e6c8 1dbe
000000e0: 9aea 7b3d 1be4 2abd 99d5 153d df51 a1bd
000000f0: d1fb 01bd a133 0fbe 54f4 20bc f3a8 90bd
00000100: c636 dc3b 95ce f83d 47e9 d3bd 27d0 9f3d
00000110: 2fe0 92bd 2ac6 cc3d 110e 293d 8cce 68bc
00000120: 7c85 07be 4fb7 3a3e fa80 123e b544 0bbe
00000130: 7eb9 70bd 23f5 99bc 3d2e 263d b757 d9bb
00000140: c760 bb3d 3ce8 c83d 5adb d13d e4fa ca3d
0.07205784 -0.12976594 -0.11693209 0.011504679 0.1634485 0.13225843 -0.1822266 -0.15597713
0.11960814 0.11218375 -0.02940352 -0.04776618 0.03174455 -0.07781624 -0.040457837 0.002872117
0.09211562 -0.12239865 -0.06528755 0.027123034 0.1299955 -0.0080348 -0.100818835 -0.08424686
0.03463611 0.09766055 -0.059279364 -0.166562 -0.06721275 0.040564027 0.3030802 0.22554572
-0.17290562 -0.024843253 0.027633669 -0.093957685 -0.050011605 -0.05670334 -0.21959738 -0.013404895
-0.15447359 -0.11111891 -0.12712519 0.10702757 0.049682908 0.110780366 -0.004573338 -0.056915153
0.0074622524 0.1387216 -0.15036446 -0.11404068 -0.13335444 -0.0044042678 -0.17107134 -0.15408668
0.06150303 -0.041721445 0.036580656 -0.07876944 -0.03173429 -0.13984539 -0.009823877 -0.070634745
0.0067203967 0.121487774 -0.103472285 0.07803374 -0.07171666 0.09998734 0.04127318 -0.014209401
-0.13234514 0.18233989 0.14307013 -0.13600428 -0.05877065 -0.018793648 0.04057144 -0.006632771
0.09149318 0.0980992 0.10246916 0.09911135

fc3.weight f4 [10, 84]
00000000: 1218 b3bd d262 41bf 470a 82bd 899a 283d
00000010: 8f39 243e 85fb f2be 6fae 4d3e 0e88 853d
00000020: 942e 1bbe c2fc 2f3e 9ef5 c63b 1375 54be
00000030: 8894 9a3d 6745 04bd bf35 85be 10f3 f6bd
00000040: 1736 74be 9185 97bd 07ac 703e ae33 b1be
00000050: 04f0 85be 161e 863d ad3d f2be 9d92 90be
00000060: 2a9b 4bbf e265 d4be de63 f8be 4e2b f4bb
00000070: 595d 253c 399b 76be a160 aabe 3150 f3be
00000080: 44a6 11bf da8e 73be 6bcb 73be 00cd acbd
00000090: f181 95be 5d38 c0bd 55f0 43be d6ea ba3c
000000a0: 76de 8cbe b5ff 163e f038 c63d ff9b cc3d
000000b0: d140 a6be 0477 2c3e a3b3 7abd 256e 293c
000000c0: fa23 0d3e b0c9 713e 5029 9bbe 3691 58bd
000000d0: f91f d43b 9259 00be 66be 5f3d ac92 63be
000000e0: 0329 4b3e e49b 3bbe 1f17 8dbe 8314 83be
000000f0: e89f 12be 8575 64be bf85 933d 2080 61bd
00000100: 076b b1be 60e5 5c3d f5cf 00bf 3522 0d3e
00000110: 98c5 debe 1a09 b2be 266e ccbd 9fa0 21bd
00000120: ec5c 36be 3c95 513d 2aa1 96be 52a7 a1bc
00000130: b6fe c8bd d1ca abbe ac5b 063e a0aa f7bd
00000140: 6aea a53e 9c5c ec3d df6c 75be 2a9c ea3d
00000150: 56f5 17bf 98ff 26be 3747 afbc a988 d9be
00000160: 6c4a 04be 6606 b4bc 13f0 663e 6353 a9be
00000170: b584 2eb9 c0af 053e 8cd3 5dbe 8d3f 6fbe
00000180: e57b 103e 315e 20bc 383e f4bd 8cd5 d13d
00000190: 401c 9bbe 7ca1 41bd eb81 82be cf08 8bbe
000001a0: 9854 c9bd 3c4d c1bc 8910 6e3e 4000 493e
000001b0: a5a1 023e 3ead 23be 2272 15be 6480 abbd
000001c0: 6fe1 133d c6b6 423e f88a 5abe 07ec 9ebd
000001d0: 4733 27be b5d9 edbd 24ba 873d ce78 3abe
000001e0: dd24 5a3e 4b66 c73c c76b 833d 3275 8c3d
000001f0: fe5f d83d 0222 1cbc 73eb 86be 82f4 a8be
00000200: dc95 f5be 3b0a e5be baf6 e0be f8f3 39bd
00000210: 1198 02bf 6bf7 a43d 8847 63bc 24db 1cbe
00000220: c220 e3bd 468a a53d 5de4 23bd e185 18bf
00000230: 5c1e 67be 835c 52be ae31 d5be bbfc 8cbe
00000240: 81bd 063e 8d88 babd f52c 0ebf 3bb0 3a3d
00000250: efdd e7be ca95 acbe 28d2 d73d 72fb 65be
00000260: 1713 f33d b9a0 283e 9018 90be 3f32 b3bb
00000270: 1167 303d b8e2 8f3c 43ef acbe 604b d2be
00000280: 3040 e8bd cce8 b83c 3916 9bbe 015b 87be
00000290: 2aa7 14be bd65 8abe 5249 9bbe bb3a 693d
000002a0: fc56 e3bc 430f 543b 76d3 84bc 251b 4f3d
000002b0: e3c6 82be 34a6 b1be 847f 91be 061b e93d
000002c0: cb52 dc3d 38cd 18bf 2296 92be 78ca 81be
000002d0: 8d88 233d 0b50 54be f22c a4bd 8ca4 3e3e
000002e0: 6c77 22bd 0c7a 41bc fe32 acbd 0950 ed3d
000002f0: 3afd 70be 074b 423e 6e3c 44be eafd 11be
00000300: 5f53 c2be f23e 093e 6b7e 78be 27d6 67bd
00000310: 548a 3fbd 1b44 183e 1180 b6be b069 963d
00000320: 16ce b8bd d9a6 013e a380 6e3e 2e1a 943d
00000330: d081 4bbe 2c85 cabd 869c f43d 247e 113e
00000340: d9b8 0e3c addb 30be 273a c0be b090 a1be
00000350: 3e2a cebe c8ca e0be 3ab8 42bf e1c8 0ebd
00000360: 8f45 c43d 7c58 a6be d501 fabd 3035 fdbc
00000370: 7e2d b13d 2cb1 0f3e 6d24 b4bc 3945 d6be
00000380: aeee 2f3e c062 eebd c121 a8be d2a3 853c
00000390: e4ff 01bf 3c6c bbbc e673 213e e154 39bd
000003a0: 46b4 08be 8fed c2be b834 2ebe d278 843d
000003b0: 5d53 95be 0a93 d3be d438 8abe ea68 98bc
000003c0: e8c2 9fbe 0e24 713e 1732 1d3d 7340 59bd
000003d0: d9bc 22bf a568 ecbe cee9 26be a683 aebd
000003e0: dc8c 873e 274a a6bd 6c19 febd 14e6 093e
000003f0: 698b 7abe 0622 4dbf db3c f4bd de85 9fbd
-0.087448254 -0.7554141 -0.063496165 0.041163 0.16037582 -0.4745752 0.20086072 0.06520091
-0.15154487 0.17186263 0.0060717603 -0.20747785 0.07547861 -0.03229275 -0.26017568 -0.12058079
-0.23848759 -0.07398523 0.23503123 -0.3460974 -0.2615968 0.06548707 -0.4731268 -0.28236857
-0.79533637 -0.4148398 -0.48513693 -0.0074514514 0.010093057 -0.2408265 -0.33276847 -0.4752212
-0.56894326 -0.23784962 -0.23808067 -0.08437538 -0.292007 -0.093857504 -0.19134648 0.022817057
-0.27513474 0.14745982 0.09678829 0.099906914 -0.32471326 0.16842276 -0.06120647 0.010341202
0.13783255 0.23612094 -0.30304956 -0.05287286 0.006473538 -0.12534168 0.054624937 -0.2222392
0.19839863 -0.18321186 -0.27556702 -0.25601587 -0.14318812 -0.22310455 0.072032444 -0.05505383
-0.34651968 0.053929687 -0.5031732 0.1378258 -0.43510127 -0.3477257 -0.09981947 -0.03945982
-0.17808884 0.05116771 -0.29419833 -0.019733105 -0.09814207 -0.33553174 0.13120908 -0.12093091
0.32405406 0.11541101 -0.23967312 0.11455567 -0.5935873 -0.16308439 -0.021396263 -0.42487076
-0.12919015 -0.021975707 0.22552519 -0.33071432 -0.0001664337 0.13055325 -0.2166273 -0.23364086
0.14109762 -0.009788082 -0.1192593 0.10245809 -0.3029499 -0.047273144 -0.25489745 -0.27155158
-0.09830588 -0.023596399 0.23248495 0.19629002 0.12756975 -0.15984055 -0.1459432 -0.08374098
0.036103662 0.19015035 -0.21342075 -0.077598624 -0.16328155 -0.1161379 0.066273004 -0.18210146
0.21303125 0.02434077 0.06417041 0.06858291 0.10565184 -0.0095295925 -0.26351508 -0.32999045
-0.47965896 -0.44734368 -0.43938237 -0.045398682 -0.51013285 0.08055004 -0.013872035 -0.1531797
-0.110902324 0.08083014 -0.040012706 -0.59579283 -0.22570175 -0.20543103 -0.41639465 -0.27536568
0.13158228 -0.09108076 -0.5553735 0.045578223 -0.4528651 -0.3370803 0.10538131 -0.224592
0.118688755 0.16467561 -0.2814374 -0.0054686363 0.04306704 0.017564163 -0.33776292 -0.41073132
-0.11340368 0.022571944 -0.30290392 -0.26436618 -0.14516893 -0.27030745 -0.30329376 0.056940775
-0.027751438 0.003235773 -0.016214114 0.050562996 -0.25542364 -0.34697115 -0.284176 0.113821074
0.10757979 -0.5968814 -0.28630167 -0.25349784 0.039925147 -0.20733659 -0.08016385 0.18617457
-0.03966467 -0.011808883 -0.084081635 0.11587531 -0.23534098 0.18973933 -0.19163677 -0.14257017
-0.37954232 0.13402918 -0.24266975 -0.056600716 -0.04676278 0.1486973 -0.35644582 0.07344377
-0.09023683 0.12661304 0.23291259 0.07231556 -0.19873738 -0.09888682 0.11943917 0.14208275
0.008711063 -0.172713 -0.37544367 -0.315557 -0.40266603 -0.4390471 -0.7606236 -0.03485954
0.0958358 -0.32489383 -0.12207381 -0.03090915 0.08651255 0.1403243 -0.021990025 -0.41849688
0.17180893 -0.11639929 -0.32838252 0.016313467 -0.50781083 -0.022878759 0.15766868 -0.045246962
-0.13350019 -0.38071868 -0.17012298 0.06468357 -0.29165164 -0.4132312 -0.2699648 -0.018604714
-0.3120339 0.2354891 0.038377848 -0.05303998 -0.6356941 -0.46173587 -0.16300127 -0.08521204
0.26474655 -0.08119612 -0.124071926 0.13466674 -0.24467243 -0.8013004 -0.1192567 -0.07789205

fc3.bias f4 [10]
00000000: 5c3d 17bd b668 78bc 4d7b 84bc a634 8ebd
00000010: 51c8 3abd 0a02 bbbd 1db5 eebc 8462 17bd
00000020: a365 a63e ee8d eabd
-0.03692375 -0.015161684 -0.016172076 -0.06943636 -0.045601193 -0.09131248 -0.029139096 -0.036959186
0.32499418 -0.11452852
