Fashion MNIST/model/FashionMNIST_CNN_Model.pt (torch, 302330 bytes, 14 tensors)

conv1.weight f4 [6, 1, 3, 3]
000000 71 0a 39 be 05 34 0e be 9d a4 97 3e 89 fd 61 3d
       -0.1807039 -0.13887031 0.29617777 0.05517343
000010 28 c7 9e 3e 34 f1 1d be 7e 63 89 3e 57 55 81 bd
       0.3101132 -0.15424043 0.2683372 -0.063151054
000020 39 70 ff bd 07 13 1e be 23 96 93 3e 55 85 cc 3d
       -0.12472577 -0.15436946 0.28825483 0.099863686
000030 2a 0e 84 3d f6 a4 dd 3d 84 5b 67 3e 71 87 4b 3d
       0.06448014 0.108224794 0.22593504 0.049689714
000040 6f fd f3 bc 69 77 07 3e 5f 74 a3 3d 26 86 53 3e
       -0.029783932 0.13229145 0.079811804 0.20656642
000050 e5 36 76 be 52 d5 f1 bc 49 e8 81 3e 59 71 5a be
       -0.24044378 -0.029520664 0.25372532 -0.21332301
000060 21 f0 77 be d4 33 d6 3e 0c d3 36 be 39 59 0c bd
       -0.24212696 0.41836417 -0.17853945 -0.034264777
000070 e9 b7 cd 3e 4e d8 4b 3e 02 33 03 bf c5 61 27 3e
       0.40179375 0.19906732 -0.51249707 0.1634589
000080 2f 60 f1 3e 89 5c d2 be e7 32 99 be 3c 65 32 bd
       0.47143695 -0.41086224 -0.29921648 -0.043553576
000090 cf 26 aa 3e 24 71 2a 3e fa e3 99 be e9 76 6c 3e
       0.33232734 0.16644722 -0.30056745 0.23092236
0000a0 1f e0 cb be 8b e5 9d 3e 49 8b 57 be 4a 32 fd be
       -0.39819428 0.3083919 -0.21049227 -0.4945243
0000b0 5f 72 d0 3e cc 77 da bf 30 43 89 bf ed d6 a7 bd
       0.40712258 -1.7067809 -1.0723629 -0.08195291
0000c0 07 0f b9 bf a3 fc ac bf ea 6b 71 be f8 e3 6e 3d
       -1.4457711 -1.3514599 -0.23576322 0.058322877
0000d0 d1 0d 87 bd 64 d7 68 3e
       -0.06594432 0.22738415

conv1.bias f4 [6]
000000 f5 d1 bc bd fc b4 ef bd f8 08 f8 bb bf b3 a8 3d
       -0.092197336 -0.11704442 -0.0075694285 0.08237409
000010 b2 87 ad 3b c1 9c 8e 3e
       0.005295717 0.2785397

conv2.weight f4 [16, 6, 3, 3]
000000 03 84 e2 bc 37 47 20 3e b0 c7 4e 3e 42 9a e4 3b
       -0.027650839 0.15652166 0.20193362 0.006976397
000010 28 bb 15 3e 9e 51 b2 be 5a af 8c 3e 3c 02 91 3d
       0.14622176 -0.34827894 0.27477533 0.07080504
000020 77 f7 89 be 58 be 85 3d 9e 3c 27 3e 9a 0b 9d 3d
       -0.26946613 0.06530446 0.16331717 0.076682284
000030 20 f3 52 3d dc 0e 87 3d 85 90 ba be ef ca 84 3e
       0.051501393 0.06594631 -0.36438385 0.25936076
000040 8d f8 56 bd c8 cf a3 be 81 ae 3c be 6d 1a 1e 3e
       -0.05248313 -0.31994462 -0.18425943 0.15439768
000050 1e 36 b8 bd 3c c4 44 be ec a4 79 3e a2 11 b5 bd
       -0.08994697 -0.19215482 0.24379319 -0.08841254
000060 31 0e d6 bd 1f 1b c8 3d 59 2d a5 3d 66 06 f5 bc
       -0.104519255 0.09770798 0.0806529 -0.029910278
000070 da 8a 1a bd 7c 98 3e be 4b 73 00 3d 9d d3 ed bd
       -0.037730075 -0.18612856 0.031359952 -0.11612628
000080 04 51 af be aa da ba be b2 e4 24 be 7c 4b 88 be
       -0.34241498 -0.36494952 -0.16102865 -0.2662009
000090 34 35 58 bd 5d 02 0d 3e b1 08 72 3e 1d da f8 bb
       -0.052785113 0.13770433 0.23636128 -0.0075943605
0000a0 1d 8e 2e 3e 8c 65 49 3e 60 26 2e 3c 27 3e 74 3e
       0.170464 0.19667643 0.0106292665 0.23851834
0000b0 e4 94 2f bc a2 94 0e 3e ad f3 d6 bd 2e 07 d6 be
       -0.010716651 0.13923886 -0.10495696 -0.41802353
0000c0 bc af f5 3d dd fb 47 be ca 5c dc 3e ad 43 73 be
       0.11996409 -0.19529672 0.43039542 -0.23756285
0000d0 db 66 8f be 50 56 ea 3e de 53 4d 3e 94 23 50 3e
       -0.2800816 0.45768976 0.20051524 0.20326072
0000e0 77 bc 21 3e dc 2e 00 3c 9a fc de bd 91 9e bd bd
       0.1579455 0.007823672 -0.10888024 -0.0925876
0000f0 21 c7 31 bd 89 99 d7 bd 3d 17 97 be 56 40 42 3e
       -0.043402795 -0.105273314 -0.29509917 0.18969855
000100 dc 66 5a 3e f6 8c 69 bd 2f fe 4b 3d 42 2b 3b be
       0.213283 -0.057019196 0.049802955 -0.1827822
000110 4b 81 a0 be 72 bb 30 3e d4 4c 11 bc 11 33 33 be
       -0.31348643 0.17259005 -0.008868415 -0.17499949
000120 e9 2f 6b 3d 8d 7d e5 bd cc 29 34 bd 19 4a 22 be
       0.057418738 -0.112055875 -0.043985173 -0.15848579
000130 9f 70 20 be 1e e3 82 be 9f 48 33 3e be 30 69 be
       -0.15667962 -0.25563902 0.17508171 -0.227725
000140 df a7 4d be 0c 6d 1d 3e 64 42 80 3e 1f f2 80 3e
       -0.20083569 0.1537363 0.25050652 0.25184724
000150 10 9c 7b be 9a b2 c9 be 25 d2 1d be 57 f3 6b be
       -0.24571252 -0.39394075 -0.15412195 -0.23042046
000160 de aa 48 bf 30 b0 9d be 6b 8f af 3b c6 5c df 3d
       -0.7838572 -0.30798483 0.005357673 0.10906367
000170 34 f1 7b 3e 8f 8c 1a bf 23 2d de be 7c 43 b6 be
       0.2460373 -0.60370725 -0.43393812 -0.35598361
000180 3a da 52 bf bd ab 1d bf ba b1 21 bf 07 3d 06 be
       -0.8236424 -0.61590177 -0.63161814 -0.13109218
000190 58 a1 4b be 08 87 b8 bd c7 84 a5 be a4 01 4b be
       -0.19885767 -0.0901013 -0.32327864 -0.19824845
0001a0 76 71 05 3e 1c aa f0 be 69 49 7a be 83 e5 8a bc
       0.13031563 -0.47004783 -0.24442066 -0.016955143
0001b0 1d 6e a4 3d f7 34 00 3e a4 cc 83 3a ed 8b 4d 3e
       0.08028815 0.12520204 0.0010055494 0.20072909
0001c0 20 7e f2 3d 70 49 01 be 98 16 d4 bd 17 fc 8b be
       0.11840463 -0.1262567 -0.10355872 -0.27340767
0001d0 57 3c 92 bd 19 d7 29 be 37 03 9e 3c 74 5f f6 3d
       -0.07140415 -0.1658596 0.019288642 0.12029925
0001e0 fd d1 c3 3d 9c c0 81 be dc 7b e5 bd 82 fc 9d 3b
       0.095615365 -0.25342262 -0.11205265 0.004821361
0001f0 7e 59 87 be 1c 4b 5c bd 19 88 2f bd e5 81 73 be
       -0.26435465 -0.053782567 -0.042854402 -0.2378002
000200 87 9f c5 3d 5e 9b 84 3d 68 b1 83 be 1b 23 00 3e
       0.09649568 0.064749464 -0.25721288 0.12513392
000210 ee e8 cb 3d 1e bc a5 be f3 e0 43 be 84 6c 8a bd
       0.09956537 -0.32370085 -0.1912878 -0.06758979
000220 4b 4c be 3d 45 fa 8e 3d 39 37 e3 bd 00 b0 76 3d
       0.092918955 0.06981329 -0.11094517 0.06022644
000230 12 93 82 3e 0c 78 56 be e0 70 8b be bd 84 af bc
       0.2550283 -0.20944232 -0.27234554 -0.0214256
000240 1d 08 bd 3d ed 65 06 3d c4 c6 a5 bd 66 fe 88 3d
       0.09230063 0.032812048 -0.08094552 0.06689148
000250 ab 6a 64 3e 05 b2 17 3e ce f3 f5 bd 81 63 cb 3d
       0.22306316 0.14814003 -0.12009393 0.09931088
000260 be 32 92 be 5c d9 69 3e 2a 90 7f be 19 af 0d bf
       -0.28554338 0.22836822 -0.24957338 -0.553453
000270 d7 ff 81 be 93 2a a6 3e 9d 89 21 3e 21 0e 2a be
       -0.25390503 0.32454357 0.15775152 -0.16606952
000280 8b 8f 2f 3f f9 5c 36 3f 9e e0 bd bd 85 65 81 3d
       0.68578404 0.71235615 -0.09271358 0.063181914
000290 21 0d 05 be e7 ab 5b 3e 47 6b ed bd 58 e4 04 3d
       -0.1299329 0.21452294 -0.11592727 0.032444328
0002a0 89 0a 17 bd 09 a8 d7 bd bf 8a 69 bd 70 86 09 3e
       -0.03687528 -0.10530097 -0.057017084 0.1343019
0002b0 4a a9 57 be 51 66 ac be 30 53 3f 3e 01 a1 27 3d
       -0.21060672 -0.3367181 0.18684077 0.04092503
0002c0 f1 9e 74 bd 66 ce b9 bc cd ea a9 3d d2 30 78 3e
       -0.05972189 -0.022681426 0.08296738 0.24237373
0002d0 3b 3f 7c 3e 31 3d e8 bd 34 86 5d bf 15 b8 cc bd
       0.24633496 -0.11339796 -0.865329 -0.09996048
0002e0 93 e6 17 be 4f 67 4b be dc 66 a9 bd 51 a7 3f bd
       -0.14834051 -0.19863628 -0.08271572 -0.046790425
0002f0 75 36 e5 3d e6 a9 8e 3e e3 e6 7a be 2b 3d b6 be
       0.111920275 0.27863997 -0.24502139 -0.35593542
000300 43 15 a6 3e 14 8f 60 bd 3a e7 91 be 98 2a 90 3d
       0.32438096 -0.05482395 -0.28496724 0.07039374
000310 19 e4 5f 3e 81 8a 93 bd 79 83 27 3e 10 0f 03 bf
       0.21864356 -0.07204152 0.16358747 -0.5119486
000320 ba 85 6c bf 0f b6 20 3d f9 30 5a bd 5d 7f 6d be
       -0.9239155 0.039236125 -0.05326936 -0.23193116
000330 2a 8d 71 3e 79 97 35 3c 87 a5 7a be fa 99 50 be
       0.23589006 0.011083477 -0.24477206 -0.20371237
000340 98 33 ae 3d 4a 86 aa bd 98 50 92 3e 10 21 b7 be
       0.085059345 -0.08326395 0.28577113 -0.35767412
000350 d2 50 5d be 15 b7 31 3e 38 32 aa be ca f2 7c be
       -0.21612862 0.17354997 -0.3324144 -0.24701992
000360 f0 81 57 3e ec 8e 65 3d 86 81 47 3e bb 4b 77 3d
       0.21045661 0.056044504 0.19483003 0.060374957
000370 cb a4 cd 3c 46 2b 0e 3e 5c 9c 55 3c 61 d7 26 be
       0.025102993 0.13883695 0.013037767 -0.16293098
000380 96 3d 51 be bb 54 94 3c 08 de 08 3e b3 62 46 3e
       -0.2043365 0.018106809 0.13365948 0.19373588
000390 f3 5b 50 bd 90 0c 46 bd 07 58 51 3e db b2 8c 3d
       -0.05086894 -0.048351824 0.20443736 0.068700515
0003a0 11 28 f6 bd 07 a7 cc bd 21 33 8a 3d d7 0e 50 3d
       -0.12019361 -0.099927954 0.06748033 0.050795402
0003b0 79 a7 a9 3e 1c 94 49 3e ce 5f 21 3d fc 10 60 3d
       0.33135584 0.19685405 0.039398007 0.054703698
0003c0 aa ba 04 3e e9 01 44 be ce 8e 89 be b8 2f 62 bd
       0.12961832 -0.19141354 -0.26866764 -0.05522129
0003d0 3a b2 3b 3e 76 0a 07 bd fa 97 ee bd 20 7a 05 3e
       0.18329707 -0.03296896 -0.11650081 0.13034868
0003e0 22 ad 32 3e 99 58 86 bd c1 1b bc be ba 71 f9 3d
       0.17448857 -0.065598674 -0.36739925 0.12179895
0003f0 06 ff 0e 3e 45 58 af 3e 31 75 6e be 17 9c 9d 3d
       0.13964471 0.34247032 -0.23286892 0.076957874

conv2.bias f4 [16]
000000 bc 72 6c 3d 1c 3e ad 3e c6 05 d5 bc 9a 89 39 3e
       0.057726607 0.33836448 -0.02600373 0.18118897
000010 73 4f 57 be 3c a0 f9 bc ee b8 49 bd b4 fc 61 3d
       -0.21026401 -0.030471914 -0.04924863 0.055172637
000020 4a 07 fd bd 33 08 dd bd 81 de 82 bd 86 2b 56 be
       -0.12354906 -0.107925795 -0.063900955 -0.2091504
000030 a0 f2 d3 bd ae 51 75 3e de 24 4f be 11 87 1e bd
       -0.103490114 0.2395694 -0.20228907 -0.038703028

fc1.weight f4 [120, 400]
000000 34 c6 cb 3d e5 2e e2 be 93 64 77 be 77 74 a2 3e
       0.099499136 -0.44176403 -0.2415946 0.3172948
000010 00 c9 bb 3d fb 2a 1e be c5 45 b5 bd 7e fd 04 3e
       0.09169197 -0.15446083 -0.08851198 0.12987325
000020 41 b0 99 bd b7 99 15 3e 5b cd ce bd 0a 43 c5 bd
       -0.07504321 0.14609419 -0.10097762 -0.09631927
000030 81 ee 09 be b4 3c ad 3e 0c 7c 5d 3e 8d 29 b2 be
       -0.13469888 0.33835375 0.21629351 -0.34797326
000040 df 3d b8 be f5 b8 3e be f9 45 92 3e be f9 0f 3e
       -0.35984704 -0.18625243 0.2856901 0.14060113
000050 54 bf 3e bf 71 ed 72 be 3a c0 3e 3e bf 1c 32 bd
       -0.74510694 -0.23723389 0.18628016 -0.043484446
000060 45 00 f6 3d b2 d0 f7 3d d1 12 a8 bd bd 46 8f 3d
       0.1201177 0.12100352 -0.08206714 0.06995914
000070 b7 99 f7 3c 18 64 29 3e 32 28 8b 3e a9 3b 3b 3e
       0.030224664 0.16542089 0.27179104 0.18284477
000080 be b6 dc 3e 6e e3 00 3e 1f 55 f2 bc 48 f8 a9 3d
       0.4310817 0.12586758 -0.029581605 0.08299309
000090 d8 51 8a bd e8 55 f4 bd ff a3 d2 bc 23 61 29 3e
       -0.06753892 -0.11930448 -0.025712965 0.16540961
0000a0 b8 2b 8e bd 2c 41 59 be 0d 1f 1e 3e d5 a4 b5 3c
       -0.069419324 -0.21216267 0.15441532 0.022173325
0000b0 06 56 89 3d 41 f2 d7 3d 59 ad 88 3e b2 21 ce 3e
       0.06705861 0.10544253 0.26694754 0.40260082
0000c0 c3 61 9d bd f0 a2 bc 3d 82 9a 74 be 8d ce 8e 3e
       -0.07684662 0.09210765 -0.23887065 0.2789196
0000d0 ca f8 d5 bd 9c 5c c1 3d b8 19 0b be 7a 1f e9 bd
       -0.104478434 0.09441492 -0.1358403 -0.11382957
0000e0 34 4b 91 3d cf d1 cf 3d fd fc c2 3d 19 29 15 3e
       0.07094422 0.1014744 0.0952091 0.14566459
0000f0 41 43 91 3e 95 f1 fb bd 42 be d6 bd 12 ce 32 bb
       0.28371623 -0.123019375 -0.104855075 -0.0027283472
000100 74 d7 94 3e 51 b4 09 3e 9c 80 98 be 92 ce 0f be
       0.29070628 0.13447692 -0.2978562 -0.14043644
000110 71 37 73 bd 11 9a 6c 3e e5 f1 48 3e 69 e3 3c be
       -0.059379045 0.23105647 0.19623525 -0.18446125
000120 17 3c fa 3d 69 d8 2d 3e 2b bb 46 3d a8 a4 a8 3d
       0.122184925 0.16977085 0.04851834 0.08234531
000130 81 16 14 be 45 bd e1 3c 20 2f e6 bd b2 c7 d9 bd
       -0.1446171 0.027556071 -0.11239457 -0.10633792
000140 09 27 97 3e 8e 58 12 3e 0d a5 67 be 44 ce 8f bc
       0.2952197 0.14291593 -0.22621556 -0.01755441
000150 f1 50 1b 3d 5a 8a 9b 3e 0d 21 13 3e 5a 7a cb 3c
       0.03791899 0.3037899 0.14368077 0.024838615
000160 a0 93 b0 bd b8 c1 0f be 06 61 fe 3d d7 bf 07 3d
       -0.08621907 -0.14038742 0.124208495 0.033141937
000170 22 6f 4b 3e 6c 27 32 bd 42 ab f8 bd 81 59 37 be
       0.19866613 -0.043494627 -0.1214204 -0.17905237
000180 a9 4f 3f 3d 96 4a 94 bd 07 46 d9 3d 8f 3c e8 3d
       0.04670683 -0.07240789 0.1060906 0.11339676
000190 b2 8f af be 0c 82 0e 3c 30 1b a0 3e 83 cb cf 3c
       -0.34289318 0.008697998 0.31270742 0.025365597
0001a0 3d 94 11 3e 2b 68 ab bd 3d 89 3a bd 6e 15 2b 3e
       0.14216705 -0.08369478 -0.045541037 0.16707394
0001b0 1b a1 1c 3e 66 6b 10 3e 0e 61 a8 3d 31 e6 c1 3c
       0.15295832 0.14103469 0.08221637 0.023669334
0001c0 8d 30 b1 bd 0e cd 9d 3c 31 21 a9 3e 1e ca 6d be
       -0.086518385 0.019262817 0.33033136 -0.23221633
0001d0 a8 0b 2a be 11 96 9c 3d 88 69 c2 bc 96 23 df bd
       -0.16606009 0.076458104 -0.023731962 -0.10895459
0001e0 1f 15 cc be 07 8f 35 be 90 6c a9 3d 42 72 2c 3e
       -0.39859864 -0.17730342 0.0827266 0.16840461
0001f0 c7 d4 01 bf 46 f2 92 3e 6e 3c b2 bc 48 9e 91 3e
       -0.507153 0.28700465 -0.02175733 0.28441072
000200 2c 82 71 39 ed ee 1e be 6c 3a 6b 3e 95 3b 0b bd
       0.00023032044 -0.1552083 0.22971505 -0.03399237
000210 d2 36 6c 3c 54 32 c2 bd 71 db 5c be 0d a1 ff 3d
       0.014417367 -0.094822556 -0.21568085 0.1248189
000220 15 b9 3d be 42 96 5e 3e 13 dc b0 3c 0f 37 31 3d
       -0.18527634 0.21737006 0.021589315 0.0432654
000230 e0 00 0c bf e9 71 8d be 70 7c e2 3b 4e db a9 3e
       -0.54688835 -0.2762597 0.0069118068 0.3317513
000240 45 f4 2b 3e 0b 33 6d bf 8f 9f 4b be 7c 76 5a be
       0.167924 -0.9265601 -0.19885086 -0.2133426
000250 a2 17 e7 bd 74 ad 55 3e 6f bd 9d 3c 27 0d ad 3d
       -0.112838045 0.20866948 0.019255368 0.08449774
000260 a7 02 7b 3e 74 25 4e ba 35 8c ba be 18 b0 25 3d
       0.2451273 -0.00078638573 -0.36435094 0.04045114
000270 be e4 eb 3d 52 a5 74 3d 2d d6 ad bd 82 9e 54 be
       0.115182385 0.059727974 -0.084881164 -0.20763591
000280 c6 3a 70 3e 2c 26 4b 3d 2f c9 2a 3e d0 29 37 3e
       0.2345992 0.04959695 0.16678308 0.17887044
000290 60 ce 4e 3e 73 02 83 3e 1e 8a 26 be 6f 86 11 be
       0.20195913 0.25587806 -0.16263625 -0.14211439
0002a0 bf d7 01 3e d8 bc 99 3e ff fd 78 3e 45 7b 8f be
       0.12679957 0.3002689 0.24315642 -0.28023735
0002b0 d0 73 8b be 67 da 6a be 63 b3 e4 3e ef e2 b9 3d
       -0.27236795 -0.22934876 0.4466811 0.09076487
0002c0 6b ab 88 3d 77 d7 ad 3d 9a 8d 2d 3e bd c9 1b 3e
       0.066733204 0.08488362 0.16948548 0.15213676
0002d0 a1 ef c6 bd 89 8b 63 3d 7b 2c 0e bd 20 42 48 3e
       -0.09713674 0.055552993 -0.03471039 0.19556475
0002e0 61 bd 8c 3c 19 0f 35 be 40 41 05 3d 2e 6e ce bc
       0.017180147 -0.1768154 0.03253293 -0.025199022
0002f0 ec b9 17 3e 10 bc 11 3c 7a 9b e7 bd 23 fb 86 3d
       0.14817017 0.008894935 -0.11308952 0.06590869
000300 2b ab 09 be b4 fc b6 bb ed 9e fa be 70 2b 08 bf
       -0.13444202 -0.005584324 -0.48949376 -0.5319128
000310 8d e7 9d be b5 9e 55 be f4 5e 5c be 16 4c ae be
       -0.30840722 -0.20861323 -0.21520597 -0.34042424
000320 03 22 71 3b eb 97 38 3d 4e 38 04 3e 56 c1 39 be
       0.0036793954 0.045066755 0.12912104 -0.18140158
000330 43 75 50 3e 9f 47 8a 3c 44 02 14 3e 0c 64 9a bb
       0.20357232 0.016879855 0.1445399 -0.0047116335
000340 a0 62 e3 3c 1d cb 0a bd 03 6f 95 bd 4b 20 99 be
       0.027756989 -0.03388511 -0.072965644 -0.2990745
000350 27 d9 ae bd 51 87 35 bd 05 19 de bc de 7e b9 be
       -0.08537512 -0.0443185 -0.02711154 -0.36229604
000360 17 77 41 3d c8 24 53 3d 41 8a ab bd 73 5e 83 be
       0.047232714 0.05154875 -0.08375979 -0.25657997
000370 78 dc bb be 81 ee 8a 3e 01 f2 98 3d 5c 6e 26 3c
       -0.36691642 0.2713509 0.074680336 0.010158148
000380 8a ae 5a 3c b4 83 3f be 89 14 42 3e 7d 85 f6 bd
       0.013347277 -0.18702585 0.18953146 -0.120371796
000390 c7 f9 2b bd 92 2d 4a bd 62 74 07 3d d9 fc 0d be
       -0.041986253 -0.049359865 0.033069976 -0.13865985
0003a0 81 4e a3 3d be 48 b0 3d 12 88 ab bc 1f 14 9a 3e
       0.07973958 0.086076245 -0.020938907 0.30093476
0003b0 f8 5a e1 3d 4b 2f a8 3c 3e 35 63 bd a8 ff 28 3b
       0.11003679 0.020530364 -0.055470698 0.0025787149
0003c0 23 a0 ff 3d 53 15 c3 bc 71 ba 1a bd f0 87 2c bd
       0.124817155 -0.02381388 -0.03777546 -0.042121828
0003d0 96 7a 85 bd 14 e8 88 be 6f 31 b8 be 0a 73 85 3d
       -0.06517522 -0.26739562 -0.35975215 0.065160826
0003e0 88 08 c3 3e e7 3b 10 bd 8e 4a 1e be 15 73 a3 bb
       0.38092446 -0.035213377 -0.15458128 -0.004988084
0003f0 70 d1 28 3d ad 3d d2 3e 69 3d 64 3e ef 94 2a 3c
       0.04121536 0.4106268 0.22289051 0.010411485

fc1.bias f4 [120]
000000 49 38 b1 3d 40 08 4e 3c 50 7f f6 b9 11 a8 62 3d
       0.08653314 0.012575209 -0.00047015632 0.055336062
000010 44 53 c1 bd c2 28 58 3e 15 98 99 bd 95 12 5f bd
       -0.0943971 0.21109298 -0.074997105 -0.05446108
000020 3b 90 1d 3c aa 34 ff bb 69 4a 56 bd 8d d0 5e 3c
       0.009616907 -0.0077882605 -0.052317057 0.013599527
000030 76 73 61 bc f1 eb c8 3d cc e2 71 bc 25 d6 82 bd
       -0.013760438 0.09810627 -0.014763545 -0.06388501
000040 03 f0 e6 3c 70 7e da 3c 59 ec 1a 3e 73 fd 98 3d
       0.028190618 0.026671618 0.15129222 0.074702166
000050 aa cb bb bd c6 5a a1 3d 2e 50 27 bd 93 2c 6d bd
       -0.09169705 0.07878642 -0.04084795 -0.057903837
000060 da 56 45 3e c0 d6 43 3b b5 77 53 bd 44 96 6f bd
       0.19271412 0.002988264 -0.051627833 -0.058492914
000070 dd 8e 50 bd cb b7 e4 3c 0d 4f 30 bd 3a af 87 bd
       -0.050917495 0.02791967 -0.04304414 -0.06625219
000080 6a 39 1d be f0 7f 5f bd 3e e1 38 bd dd 8a 9a bc
       -0.15353933 -0.05456537 -0.045136683 -0.018865043
000090 24 05 a0 bc c0 c7 f7 3b c9 ee 1c bc 26 5a e8 3d
       -0.019533701 0.007561654 -0.009578415 0.113453194
0000a0 e6 2b 9d bc 4f 20 88 3d aa 5d 3e bd 71 77 a1 bd
       -0.019185971 0.066467874 -0.046476044 -0.0788411
0000b0 6e 07 86 3d 71 18 86 bd 43 e8 41 bd a2 37 3a 3d
       0.06544386 -0.065476306 -0.047340643 0.04546321
0000c0 b7 30 be bd bb 31 af bd 1f 28 d1 bd a4 81 cc 3d
       -0.09286635 -0.08554407 -0.102127306 0.099856645
0000d0 d6 ef ac bc e9 8b 18 bd 5b f3 15 bd db bc 85 3d
       -0.021110456 -0.037242804 -0.036609035 0.06530162
0000e0 84 c4 e5 3d 89 9e 8f bb 6d 13 90 bc 97 27 21 bc
       0.11219123 -0.0043829125 -0.017587388 -0.009836099
0000f0 21 b9 07 3e f1 ce 2c 3d c5 21 2d 3e 21 d7 53 bd
       0.13254215 0.042189542 0.16907413 -0.051718835
000100 87 c8 f2 bb e5 a7 7e 3d e3 45 0e 3d ce a4 cc bd
       -0.0074091586 0.062171835 0.034734618 -0.099923715
000110 c2 58 a2 3d 59 7a 92 3d 9a 5e 2d 3c 9b 41 81 3d
       0.079270855 0.07152242 0.010581637 0.063113414
000120 d1 1d 47 bd 68 2a 25 3e 70 7b 09 be 02 70 1b 3e
       -0.04861242 0.16129458 -0.13425994 0.15179446
000130 54 b0 6d bc 6b 86 05 bd 3a 1a e0 bd b6 56 ff bc
       -0.014507372 -0.032598894 -0.10942502 -0.031169277
000140 03 11 49 bd 4c 7e 81 bc a6 3d 5f 3c 3f 9f 97 bd
       -0.04908849 -0.015807293 0.013625538 -0.07403421
000150 7a 63 60 bd f2 2c 30 3d 26 e7 ef 3c d5 40 81 bd
       -0.05478237 0.043011613 0.029285025 -0.06311194
000160 a6 27 97 3d 4f 4a 92 3d ce d0 09 be 79 4b b9 3d
       0.07380609 0.071430795 -0.13458559 0.090475984
000170 e7 d7 87 bd f6 0b b2 bc 7f 26 3b bd 1d 42 88 3d
       -0.06632977 -0.021734219 -0.04569101 0.06653235
000180 cd ab 18 bc c7 bb 4e 3d 1e 1e 75 3d a6 90 99 3c
       -0.009318304 0.050472047 0.059843175 0.018745732
000190 9a 72 58 bd 75 c1 43 bd 40 f7 46 3a 24 94 59 bc
       -0.052843668 -0.047791917 0.00075899437 -0.013279948
0001a0 5a 09 04 3c 0e 17 27 bd 51 cb fa 3d 9b b7 2d 3c
       0.00805887 -0.04079347 0.12245811 0.010602857
0001b0 52 d7 d1 bb 9d 7f 85 bc bd d5 05 3c 05 e8 27 3e
       -0.006403842 -0.016296202 0.008168635 0.16397102
0001c0 3f dd 9a bb bd a2 2f bd 10 68 6c bd 0f b5 3f bd
       -0.0047260816 -0.04287981 -0.05771643 -0.04680353
0001d0 24 b0 a7 3d 88 bf 81 bd 87 a4 f8 3d 58 90 49 bc
       0.08187893 -0.0633536 0.12140756 -0.012302481

fc2.weight f4 [84, 120]
000000 77 5b 30 bd 35 f7 5d bb 59 65 cf bc 91 47 9e 3b
       -0.043055978 -0.003386927 -0.025316881 0.0048303087
000010 82 63 20 bd b6 ae 0d be 0f 0f bd bd 9d f2 9f bd
       -0.039157398 -0.13836178 -0.09231388 -0.07809947
000020 98 57 1c 3d 67 48 fb 3c a3 31 cc 3c 4a 48 de bd
       0.038169473 0.030674173 0.024926012 -0.10853632
000030 bd bf a7 bb 62 4a a6 3c 63 36 8e 3d 74 08 dc bd
       -0.0051192925 0.02029914 0.06943967 -0.107438
000040 4c 8d 1a 3d 20 f5 ef bc 77 eb c1 ba d1 58 fc bc
       0.037732407 -0.02929169 -0.0014794905 -0.03080407
000050 d9 35 50 bc 0d 4a 69 bd 67 d1 f3 3c 43 02 c6 bb
       -0.012708151 -0.056955386 0.029762937 -0.00604275
000060 9a 61 ac bc 30 f1 73 bd 0e e3 14 bc 7e 87 d7 bc
       -0.021042634 -0.059556186 -0.009087337 -0.026309725
000070 22 3b 90 bd 87 f9 79 bd 5d 5f 55 bd 7b 62 6a bd
       -0.07042529 -0.061028983 -0.0520929 -0.057222825
000080 cc 5b af 3b 7f 22 ab 3b 79 5e a1 bd 3c b5 f8 bd
       0.005351519 0.005222618 -0.07879347 -0.12143943
000090 27 d8 b6 bd 2a fd d6 bd 8d 0d 8f 3c 06 57 7e bd
       -0.089279465 -0.10497506 0.017462516 -0.06209471
0000a0 e2 82 1c bd 4b 3c 38 bd ce 3b 2e 3c 35 08 0a bd
       -0.038210757 -0.044979375 0.010634376 -0.033699233
0000b0 14 c7 94 bd 60 a9 c7 bd 14 5b 31 bd 01 f9 d6 bd
       -0.07264534 -0.097491026 -0.04329975 -0.104967125
0000c0 03 02 c1 bd ad 4a e4 bd 04 b0 98 bd 3b 57 e7 bd
       -0.09424212 -0.11147056 -0.07455447 -0.11295935
0000d0 15 8d 94 bd 31 db c5 3a 5e cc cc ba 49 9a dc bd
       -0.07253472 0.0015095231 -0.0015624871 -0.10771615
0000e0 bf 95 9e 3c 17 1b 78 bc 0b ed b0 bd 08 3b 2d 3d
       0.019358514 -0.0151431775 -0.08638962 0.042292625
0000f0 2f 2d e2 3b 68 f4 31 3c 2e cd ef bc 05 0f 5b 3d
       0.006902359 0.010861494 -0.029272642 0.05348112
000100 0a e0 68 3d c4 78 94 bd 32 dd d1 bd df f7 cf 3c
       0.056854285 -0.07249597 -0.10247268 0.025386749
000110 2b 24 9a bc a6 0c 07 be 38 80 99 bd e0 70 34 3c
       -0.018816074 -0.13188419 -0.07495159 0.01101324
000120 14 88 11 3d 14 65 69 bd 33 1d 87 3d 86 ba b3 3c
       0.035530165 -0.05698116 0.06597366 0.021939527
000130 c3 97 a9 3c c3 9d a0 3c be ab 43 3d 64 8b 9f bc
       0.020702248 0.019606477 0.047771208 -0.019475646
000140 26 b7 40 3d 3d a6 09 3d f9 86 1e bd 89 49 2e bd
       0.047049664 0.033605803 -0.03870294 -0.042550597
000150 20 36 e3 bb ef e1 65 bd a5 17 a5 bd 29 e8 40 bd
       -0.0069339424 -0.05612367 -0.080611505 -0.047096405
000160 c2 c7 f7 3c 6d 46 85 bd 1e 3d 56 bd bd 51 17 be
       0.03024662 -0.06507573 -0.05230438 -0.14777274
000170 e0 c0 ae 3d 7b 8b 96 3c cc 18 b0 3d 16 22 61 3c
       0.08532882 0.018377056 0.0859848 0.013741037
000180 95 b1 3a 3d 18 18 fd bc 2e de 3d 3d 72 a3 3a 3c
       0.04557951 -0.030895278 0.046354465 0.011391507
000190 56 7b 79 3d de 5d 9c 3c 14 0f 74 3c e1 88 f1 bc
       0.060908638 0.019087728 0.014896173 -0.029484214
0001a0 81 f6 5c bd ce d7 a0 bd 07 98 a5 bd 38 1c ca bd
       -0.053946022 -0.078536615 -0.080856375 -0.098686635
0001b0 41 0c 33 bd 27 7e 0f bd 13 f6 73 bd ad cc 85 bd
       -0.043712858 -0.035032418 -0.059560847 -0.065331794
0001c0 3d 09 b9 3c 35 63 a3 bd 65 75 f6 3c 68 ca 6c 3d
       0.022587413 -0.079779066 0.030085275 0.057810217
0001d0 f0 08 14 bd 84 1c 17 3d 96 bc a3 bd f5 31 14 3c
       -0.036141336 0.03689243 -0.07994954 0.009045114
0001e0 f0 88 78 bd 02 1e 96 3c c1 68 0d bd 4f 02 bc 3d
       -0.06067747 0.018324856 -0.03452373 0.09180128
0001f0 89 b7 a4 bc f8 3f 9b be 28 4b bb bc 93 22 00 bd
       -0.020107048 -0.30322242 -0.022862986 -0.031282973
000200 20 c2 8e bd 7c d6 c6 3c ed e9 40 bc bf 72 3d be
       -0.0697062 0.024272196 -0.011774522 -0.18500803
000210 06 72 90 be 8f 69 51 be 93 97 24 3c 47 07 fe bc
       -0.28211993 -0.20450424 0.010045904 -0.03100933
000220 3c 2a 41 3d 00 26 9c 3c 9f 1d 1a 3d 1a e6 9d be
       0.04715942 0.019061089 0.037625905 -0.30839616
000230 f7 72 4f 3d ed ae 37 bc 62 1d 44 bc e6 5d ea bc
       0.05064675 -0.011211139 -0.011969896 -0.028609227
000240 67 f8 86 bd 82 9d c1 bb f8 a6 82 3d c6 cb 27 3d
       -0.06590348 -0.005908669 0.06379503 0.040965818
000250 39 2e 83 3d 49 1a eb bc db 58 3f 3e b6 87 bc 3d
       0.06405301 -0.028699057 0.1868624 0.09205572
000260 0f 5b 89 bd 1e ef 05 3e f6 8e 22 3d 74 39 c8 3e
       -0.06706821 0.13079497 0.03968712 0.39106333
000270 d3 56 8a be 8e 32 40 be 3a c5 5d bd d6 93 2c 3b
       -0.27019367 -0.18769285 -0.054143168 0.0026333234
000280 96 c2 32 be 09 e3 92 3e bd 58 8c 3d 5f f3 2d 3d
       -0.17457041 0.2868884 0.06852863 0.042468425
000290 fa fb 8b be 4e d7 9e 3e 42 d4 2d bd e4 ed 84 bb
       -0.2734068 0.3102364 -0.042438753 -0.004056679
0002a0 7b 0e c9 bd 16 0f 25 3e d3 88 73 be 26 e6 7b bd
       -0.09817215 0.16119036 -0.23782663 -0.061498784
0002b0 9c a5 d4 3d b2 32 82 3d 60 79 2c 3d ab a3 ca be
       0.1038315 0.063573256 0.04210794 -0.39577994
0002c0 a2 d8 86 be d5 96 c9 3c c4 66 68 be 9f 8a 95 3e
       -0.26337153 0.024608055 -0.22695452 0.29207322
0002d0 81 a0 d2 bd a7 da 11 be 3c 4b ef 3b 5a 92 39 bd
       -0.1028452 -0.14243565 0.00730267 -0.045305587
0002e0 13 fc 3b bd ac 4a af be 6c 9f 01 bc 91 26 7b be
       -0.045894694 -0.34236658 -0.007911544 -0.2452643
0002f0 34 57 57 3d 32 41 50 bc 4f 0b f8 bc 18 d4 6a 3e
       0.052573398 -0.012710856 -0.03027883 0.2293247
000300 41 6d 0b bc b0 2c be be 6d 55 e8 3c a6 94 0a be
       -0.008509935 -0.3714347 0.028361047 -0.13533267
000310 29 48 39 3e 33 f1 89 3d 77 67 ec bc 98 85 5c ba
       0.18093933 0.06735458 -0.02885793 -0.0008412241
000320 19 9b af 3c aa 93 80 be 79 cf 8c 3e d1 ba b6 bd
       0.021436261 -0.2511266 0.2750204 -0.08922351
000330 8e aa a7 bd 02 3d 55 bd 47 13 88 bd 93 91 cb 3c
       -0.081868276 -0.052060135 -0.06644302 0.024849689
000340 bd 2a 59 3b be fe f5 3d aa 6b 76 bd 02 12 06 be
       0.0033137046 0.12011479 -0.06016127 -0.13092807
000350 a4 63 7a bd d6 2c ef 3d f0 63 a0 3b 38 50 40 bd
       -0.06113018 0.11678474 0.004894726 -0.046951503
000360 d3 4c 64 bd 34 10 48 bd 57 f8 2d be 2c 6d bb bd
       -0.055737328 -0.048843578 -0.16989265 -0.09151682
000370 cf 11 c5 3c bc 58 b4 be db db 85 3e 97 e3 b2 bd
       0.024056343 -0.3522395 0.261443 -0.087348156
000380 ea 7e 6f 3e 2d c4 97 be 0a 5e d6 3d a0 d0 3a 3e
       0.23388258 -0.29641858 0.10467155 0.18243647
000390 c4 f3 bf be 07 fe c4 bc 95 68 af 3c 2c 90 4f 3d
       -0.37490666 -0.02404691 0.021412173 0.050674602
0003a0 46 e3 a2 3d 2b be 59 bd 06 e3 68 3d 2f 81 74 bc
       0.07953505 -0.053159874 0.05685713 -0.014923378
0003b0 87 9f 39 3d cb 6f 44 3c 16 52 7f be 3e 98 e1 3d
       0.045318153 0.011989544 -0.24933657 0.11015366
0003c0 4f 12 93 3e 65 0d 3c be 9e bf 38 3d ae 32 c7 3e
       0.28724906 -0.18364485 0.045104615 0.38905853
0003d0 0d 2a 62 3b f0 25 86 be ed a5 02 3d 15 35 88 bd
       0.0034509928 -0.2620082 0.03189652 -0.066507496
0003e0 1b 40 86 3d 8c cd 2d 3d 2c ce cb 3c 29 30 96 be
       0.06555196 0.042432353 0.024878584 -0.29333618
0003f0 e6 6b 9a bc 43 90 93 bd dd 4c 0c bd c7 b2 47 be
       -0.018850278 -0.0720525 -0.03425299 -0.19501792

fc2.bias f4 [84]
000000 25 6b 9f bd 15 e4 0b bd d9 26 9b 3d a4 8d 4f 3e
       -0.07784108 -0.034153063 0.07575769 0.20268875
000010 d0 ff a1 3c 10 32 31 3d f3 8b 44 3e d8 de 33 3d
       0.019775301 0.043260634 0.19194011 0.043913692
000020 95 2f a5 bd fe 9b ce bd c8 13 9d be 1d 22 b3 3c
       -0.08065716 -0.10088347 -0.30679154 0.021866852
000030 34 1c f5 bd 0e 70 bb 3d 13 bb 00 be 49 44 08 be
       -0.1196827 0.09152232 -0.12571363 -0.13307299
000040 39 49 b9 3d b0 35 db 3b b3 59 67 be 91 26 09 3e
       0.09047169 0.0066897497 -0.22592811 0.13393618
000050 56 5c 59 be f2 34 10 be da e3 17 3e ab ed 3d be
       -0.2122663 -0.14082697 0.14833012 -0.18547694
000060 1d af f6 3d 88 ae c2 3c 73 d6 fc 3d 7e af 12 be
       0.12045119 0.023764864 0.123455904 -0.14324757
000070 80 0f 00 be d9 33 c6 3d 01 0a 13 be 5e 5b 75 3c
       -0.12505913 0.09677858 -0.14359285 0.014975397
000080 db d1 33 be d3 eb 09 be 61 9f 66 3e 54 12 23 be
       -0.17560522 -0.13468866 0.22521736 -0.1592496
000090 c3 37 6c bd 17 b3 82 be f6 56 87 3d 6e 0d 70 bd
       -0.057670366 -0.2552726 0.06608383 -0.058606558
0000a0 9d 9a c4 bd 25 ef 2e 3e ab 7e 91 bd 75 ce 73 3d
       -0.09599803 0.17083414 -0.07104238 0.059523065
0000b0 b8 f9 8f 3c 87 a5 da 3d bb e1 41 3c 24 86 2f be
       0.01757513 0.10676103 0.0118336035 -0.17141014
0000c0 0c 70 80 bb c2 02 6f 3c 68 69 2b bd 43 c1 9e be
       -0.003919607 0.01458806 -0.04184857 -0.31006822
0000d0 2b d1 7a be a7 80 04 3d 7d 83 20 bd 52 6e 7b 3c
       -0.24493854 0.032349255 -0.039187897 0.015346127
0000e0 5c c3 9e 3d 5f 92 51 be d1 e1 28 bd 16 58 3b be
       0.077521056 -0.20465992 -0.04123098 -0.18295321
0000f0 f1 08 15 3d e2 7c 23 be 54 d3 cf bd e8 a2 b4 3c
       0.03638548 -0.15965608 -0.101477295 0.022050336
000100 c5 a6 19 3e 22 b0 4f 3e 37 4b 55 bd da bd b3 bd
       0.15005024 0.20282033 -0.052073684 -0.08776446
000110 f2 0c b4 bc fd 2a 34 3e ad 50 5a be 73 46 8e be
       -0.021978829 0.17594524 -0.21319838 -0.27788123
000120 c8 01 ba be bd 23 d2 bd 30 b8 e1 bd 66 1f dd bc
       -0.36329484 -0.10260723 -0.11021459 -0.026992511
000130 97 be aa 3d 6c 98 46 bd 03 70 bf bd 4d 2c 26 be
       0.083371334 -0.048485205 -0.093475364 -0.16227837
000140 99 a6 54 3e d1 2e 06 bd 7d 5f 58 3e d0 a1 af be
       0.20766677 -0.03275949 0.21130176 -0.3430314

fc3.weight f4 [84, 84]
000000 5a 8c 9d 3c f1 06 f1 bb a6 15 bb 3c a5 90 d6 bd
       0.019231964 -0.007355564 0.022837471 -0.104768075
000010 c8 1c 82 3e 7a c6 2e 3e 39 33 b9 bd 5d 7b b8 be
       0.25412583 0.170679 -0.09042973 -0.3603162
000020 1f f2 95 bd 8d d3 1c 3e 02 98 39 3e ba 84 f5 3d
       -0.073215716 0.15315075 0.18124393 0.11988206
000030 06 71 89 3d fa b4 b6 bc 31 57 54 3d 25 f5 43 bd
       0.06711011 -0.022303093 0.051840965 -0.04784121
000040 5e 78 3e bd 04 54 7e 3e 3f d2 a0 be 01 13 f0 bd
       -0.04650151 0.24836737 -0.31410405 -0.11722375
000050 42 b0 dc 3b bf 35 ac bd 6f c7 f2 3c 99 c9 84 3d
       0.0067348788 -0.08408689 0.029636113 0.06483764
000060 ea cb 8c be 42 ca 7d be c4 86 04 3f ae f0 ad 3b
       -0.27499324 -0.24784186 0.51768136 0.0053082323
000070 4a 2a c6 bc 4d cc 89 bd b5 e7 a1 3c 4d 2c 1e be
       -0.024190087 -0.067284204 0.019763807 -0.15446587
000080 4f 80 fd bd aa 55 8c bd 4d 96 1c be 79 1e 9b 3d
       -0.123779885 -0.068522766 -0.1529171 0.075741716
000090 a1 55 4e 3e c9 07 9f 3c 85 1c 49 3d da ff cb 3d
       0.20149852 0.019412892 0.049099464 0.09960909
0000a0 eb 8c 6e 3e 7e ec 80 bd 7c 43 67 3c e8 d8 86 be
       0.23295943 -0.06295107 0.014115211 -0.2633736
0000b0 fa 2c e6 3d 18 d3 5c bd 96 cc fe bd 1f 53 24 bd
       0.11239047 -0.053912252 -0.124413654 -0.040118333
0000c0 74 3f d3 bd 0c 9d 49 3e 02 9a f0 3d 75 22 07 bd
       -0.10314837 0.19688815 0.11748125 -0.032991845
0000d0 e0 bb 3f bd 15 5b 12 bc 89 dc 91 be 61 cb 1b bd
       -0.04681003 -0.008932848 -0.28488567 -0.038035754
0000e0 3d 2d ff 3d de 1f 6a bd d8 44 5e be 56 cb 74 be
       0.124598004 -0.057159297 -0.2170595 -0.23905692
0000f0 8e d5 9e bd f2 cb b2 3d 15 4a c3 39 80 d8 97 3d
       -0.07755576 0.08730306 0.00037248494 0.07414341
000100 24 27 b8 be 5d 33 0a bd 93 6b 7c bd 0d d3 f3 3d
       -0.35967362 -0.03374039 -0.06162603 0.11905489
000110 b2 2b d1 bd 8e 2d 19 3e 40 69 a0 bd 14 a5 d8 3d
       -0.10213412 0.14958784 -0.07832575 0.10578361
000120 6b d1 b5 bc 18 0c 78 3d d1 5d 14 be de e5 1c 3e
       -0.022194585 0.06055841 -0.14488913 0.15322062
000130 d9 65 c6 bd 92 35 45 bd cd 30 55 3d b7 81 3d bd
       -0.09687395 -0.04814679 0.052048493 -0.046266284
000140 3b 0a 50 bc 36 22 fa bd 4e 44 f4 bd eb 4c fd 3d
       -0.012697752 -0.122135565 -0.119270906 0.123681866
000150 f1 85 72 bd 23 40 a4 3c 8d 8a a4 be 27 a2 58 bd
       -0.059209768 0.020050114 -0.32136956 -0.052889016
000160 1f 89 b5 bd c0 d5 f2 bd 6e cd 39 be 2c 81 15 be
       -0.088640444 -0.11857176 -0.18144771 -0.14600056
000170 0b e5 ba bb 90 d1 a0 3d ce 95 3c bd d7 4a d6 3d
       -0.0057035736 0.07852471 -0.046041302 0.10463493
000180 e7 7b 8c bd 03 97 e2 bb c4 a6 1d be 34 ed 43 3d
       -0.0685957 -0.0069149747 -0.15395647 0.047833636
000190 fc e4 a4 bb 51 0f da bc ca d5 be bd 6d f1 db bd
       -0.00503218 -0.026618632 -0.09318121 -0.10739408
0001a0 31 a6 7a 3d 53 7b 95 bc 2d ca 14 be 9f 93 87 be
       0.06119365 -0.018247282 -0.14530249 -0.26479813
0001b0 94 a4 91 3d a1 c9 a0 3d e8 d7 14 be d1 dc 79 3e
       0.07111469 0.07850958 -0.14535487 0.24400641
0001c0 ee 53 87 be 26 18 01 3e 57 ed ea bc aa 72 ec bd
       -0.2643122 0.12606868 -0.028677626 -0.11545308
0001d0 9f 0c 1d 3e dc 49 a6 3d d2 b7 a3 bd 64 34 06 3d
       0.15336846 0.08119556 -0.07994045 0.032764807
0001e0 c6 14 f0 3d 5b 86 eb bd 51 73 57 be 11 97 cb 3d
       0.11722712 -0.11500236 -0.21040083 0.09940923
0001f0 64 f1 0d 3d c8 bb 8b be ba f4 fb bd f7 03 7b bd
       0.034654036 -0.27291703 -0.12302537 -0.061283078
000200 f9 99 0f 3e 6a 38 f6 3c ec 1c 3a be d2 ff 39 be
       0.1402358 0.030056197 -0.18175095 -0.18163994
000210 6c 3b 19 be 29 a4 a8 3e 4b e0 9f 3d ce 54 0a be
       -0.14964074 0.32937744 0.07806452 -0.13508913
000220 8f a4 75 bb 25 8b 6d be a7 cb 58 bd d5 71 dd bc
       -0.0037482118 -0.2319761 -0.052928593 -0.027031818
000230 0e bb 24 bd 5c e6 34 3c 57 53 f6 bc 59 fc 04 3e
       -0.04021745 0.01104125 -0.030069036 0.12986888
000240 28 67 a1 bd 0f 2d 97 bd f1 c1 90 3d 55 f9 8b be
       -0.078810036 -0.07381641 0.070682414 -0.27338663
000250 cf 06 2c be ab 61 c0 bd e5 e0 a0 3e e6 70 12 3d
       -0.16799472 -0.09393629 0.3142158 0.0357522
000260 5e ea 1d be 2f af fe bd 54 47 a3 bd df 62 6a bd
       -0.15421435 -0.12435757 -0.07972589 -0.057223197
000270 73 c1 ff bc 3a b3 03 be 6f 5c bf bd 0d 7d f7 3b
       -0.031220173 -0.12861338 -0.09343802 0.007552749
000280 f6 dc b2 bc ec 74 b2 be a2 37 c3 bd 22 49 3d be
       -0.021833878 -0.3485483 -0.095320955 -0.18484929
000290 63 f4 a0 be a5 a1 93 3d 6d 78 30 be 00 5d 05 be
       -0.31436452 0.072085656 -0.17233439 -0.13023758
0002a0 6a d2 46 3d 1c ba d8 be 14 f6 3a bd d2 0a f3 bd
       0.04854051 -0.4232949 -0.045644835 -0.11867298
0002b0 89 ab 19 3e 54 3d ec bc eb ae 84 be 36 e1 41 be
       0.15006842 -0.028837837 -0.25914702 -0.18933567
0002c0 6f f1 28 3e b7 ec 1f 3d df 36 ca bd 2b 8f ef be
       0.1649835 0.03904411 -0.09873747 -0.46788916
0002d0 dd 60 8e 3c 56 72 8a bd c4 e5 9e bc fd e6 f3 bc
       0.017380172 -0.06760089 -0.01939667 -0.02977323
0002e0 e1 e7 c2 be 6f fc bb 3c fe 43 8f 3d 0e 6f 55 be
       -0.38067535 0.022947518 0.0699539 -0.20843145
0002f0 64 be eb 3d e0 b0 c0 3d 56 cd 24 be 3c 88 1d bd
       0.115109235 0.09408736 -0.16093954 -0.03846
000300 7a 7c 13 be aa ab 9c be 10 a5 3f 3d 99 05 bd 3d
       -0.14402953 -0.3059972 0.046788275 0.09229583
000310 75 51 0b 3e f7 f3 ad 3d ef 85 99 3d 08 9b e8 3d
       0.13605292 0.08493798 0.07496249 0.11357695
000320 85 09 80 bc a0 e4 a1 3d d6 8e b2 be 89 b5 9c bc
       -0.01562954 0.07904935 -0.348746 -0.019129531
000330 64 8f 9f bd af c6 4d 3e 76 11 a2 bd df 05 c4 3d
       -0.077910215 0.20095323 -0.07913487 0.09571432
000340 2f b5 31 3d 84 43 1c 3d ca e6 54 3e b7 3b e0 be
       0.04338568 0.038150325 0.20791164 -0.4379556
000350 f2 37 81 bd 7c a7 61 3c 51 0d d9 bd 18 b2 f4 39
       -0.06309499 0.013772842 -0.10598243 0.00046671997
000360 cd 43 69 bd 3c d4 85 bc d8 8e 30 3e bb 62 da bd
       -0.056949425 -0.016336553 0.1724199 -0.106633626
000370 a6 c7 4f bd 0b ab 53 bd a3 9a c7 bd 32 11 ba 3d
       -0.05072751 -0.05167679 -0.097462915 0.09085311
000380 86 56 64 3d 87 81 08 3d e1 50 d6 be 44 e6 10 3e
       0.055746578 0.033326652 -0.4185858 0.1415034
000390 1d e8 de be c1 96 7a 3d ee 00 cf 3d 43 09 b4 bc
       -0.43536463 0.061178926 0.10107599 -0.021977073
0003a0 86 00 88 3d 24 9b 24 be d1 92 06 3e 47 38 37 3e
       0.06640725 -0.16074806 0.13141944 0.17892562
0003b0 b1 8e 7c be d8 18 9e 3d be 70 37 be 57 29 83 bd
       -0.24663807 0.07719582 -0.17914101 -0.06404369
0003c0 cd 55 3b bd a3 4e fa 3d 08 0a 76 3e 3e b4 4e 3d
       -0.045736123 0.1222203 0.24027264 0.05046486
0003d0 78 97 71 bd 5d 84 2e 3e 82 81 9b bd 02 3f 41 be
       -0.058982342 0.1704268 -0.07593061 -0.18871692
0003e0 17 af 2f bc c8 5c a2 bd ae 16 af be 0a 48 44 be
       -0.010722897 -0.07927853 -0.3419699 -0.19168106
0003f0 5f 69 4b bd fe bb 0a bd 2d e6 ad be d3 f0 69 be
       -0.049661037 -0.03387069 -0.33964673 -0.22845773

fc3.bias f4 [84]
000000 6a 95 c8 3d 7e 28 d2 bd 4e 4a cf bd 22 99 38 3c
       0.097941235 -0.102616295 -0.10121594 0.011266978
000010 6b ac 64 3d d8 56 62 bd 15 bd 86 3e 48 91 c0 3c
       0.055828493 -0.055258602 0.26316133 0.023506775
000020 75 24 0b be f0 71 27 be 2f 98 c2 bd 89 8b 22 3e
       -0.13588126 -0.16352057 -0.09501683 0.15873541
000030 f7 6f 39 bd 51 90 b2 3d 95 5c ba 3d d5 e5 c2 bc
       -0.045272794 0.087189324 0.0909969 -0.023791233
000040 95 ae 3b bc c9 31 2e 3e f0 6f f0 bc 58 b0 18 3c
       -0.011455198 0.17011179 -0.029350251 0.009319387
000050 cb 7f e2 bc 26 23 c1 bd ac e4 19 be 50 11 02 be
       -0.027648827 -0.09430532 -0.15028638 -0.12701917
000060 df a9 3e be 78 ed 12 be 62 34 b4 3e db 3f 5d be
       -0.18619488 -0.143484 0.35196215 -0.2160639
000070 4b 5b 87 3d a3 c2 8c 3d 5a 3e c6 bc 5c e1 d8 3e
       0.066092096 0.068730615 -0.024199653 0.42359436
000080 0e b7 74 3d a3 f6 03 be 3a 4f b4 bd ff 07 d9 bd
       0.059744887 -0.12887053 -0.08804174 -0.10597228
000090 92 68 37 be d0 4b 9c 3d a3 bf 19 3e af 4d 2b 3e
       -0.17910984 0.076316476 0.1501451 0.16728853
0000a0 67 b8 11 3e 10 96 7d 3d c5 3f 64 be eb 41 a9 be
       0.142305 0.06191069 -0.22289951 -0.33058104
0000b0 97 89 f7 bd 35 c8 db 3d 63 18 27 be 46 24 80 3d
       -0.1208679 0.10731546 -0.16317897 0.062569186
0000c0 12 9d 26 bd 4a 89 86 3d be 71 43 3c d4 7c 11 3e
       -0.040677138 0.065691546 0.011928974 0.14207774
0000d0 2d ee 0c 3e c1 0d da bd 25 2c 89 3e 48 09 e6 bd
       0.13762732 -0.106471546 0.26791492 -0.11232239
0000e0 31 58 2f 3e a9 f2 43 be 5a 3f 78 3e 42 da c4 3b
       0.17123486 -0.19135536 0.24242917 0.0060074637
0000f0 a3 2f b1 bc 2f 9a 47 be 5a f9 a9 bd 01 bb 7c be
       -0.02162916 -0.1949241 -0.08299513 -0.24680711
000100 2b 24 49 3e 25 24 c7 3d 9f 95 81 bd b7 04 0e be
       0.19642703 0.09723691 -0.06327366 -0.13868986
000110 91 ea a4 3d b8 04 45 3e 64 d0 9f be 05 32 9e 3d
       0.080525525 0.19240081 -0.31213677 0.07724384
000120 1e be 29 3d 0b 5b ca bd b8 d2 a9 bd 2a c2 ca bd
       0.041441076 -0.09880646 -0.082921445 -0.09900315
000130 c4 b9 d5 bd 7b 6a 0c 3c e8 fa 40 be 7f 2b cf 3d
       -0.104358226 0.008570309 -0.18845713 0.10115718
000140 2e 0c c5 bd f6 1e 6a 3e 5b 30 ce bc 94 de 2f be
       -0.09621464 0.22863373 -0.025169542 -0.1717475

fc4.weight f4 [84, 84]
000000 4b c0 23 3e e9 aa f3 3b c9 c3 4b be 16 85 5c bd
       0.15991323 0.0074361456 -0.19898905 -0.05383786
000010 71 c5 67 3e 9a 0d 6c 3e 63 37 8f bb 1b 3e bd bd
       0.22633912 0.23052064 -0.0043706163 -0.09240361
000020 22 7b 43 be b4 a5 91 3d f4 cf b5 be 83 48 2b be
       -0.1908994 0.071116835 -0.35510218 -0.1672688
000030 80 e2 a1 3d 01 61 ab bd 04 97 42 3c 1f 71 21 be
       0.079045296 -0.083681114 0.011876825 -0.15765809
000040 5e 47 49 be 83 1d 56 3d fd 15 cd 3d 8e f3 24 be
       -0.1965613 0.05227424 0.100139596 -0.16108534
000050 52 47 c6 3c 86 df 3e bc 04 aa f5 bc b8 3d 74 bd
       0.02420393 -0.011649972 -0.029988296 -0.059629172
000060 e2 b6 19 be 67 69 b2 be 47 64 00 3c b8 4f a8 bd
       -0.1501117 -0.3484604 0.007836408 -0.0821833
000070 96 72 96 be bf 23 a6 bd 25 af 82 be 90 e7 26 be
       -0.29384297 -0.08112287 -0.2552425 -0.16299272
000080 0a dc 10 be 47 2e 90 3d 46 f0 62 bd ff b1 f8 bd
       -0.14146438 0.07040077 -0.055404924 -0.12143325
000090 83 d8 c0 bd b5 13 ac 3e 01 c5 28 be 36 3f a6 bd
       -0.09416296 0.33608785 -0.16481401 -0.08117525
0000a0 83 ab 8c bd 37 cc e0 bd d3 2e 57 3d 70 ac c3 bd
       -0.06868651 -0.10976451 0.05253489 -0.09554374
0000b0 9e 78 1b be d6 f9 a9 bd fc 38 b0 be a5 25 01 bd
       -0.1518273 -0.082996055 -0.34418476 -0.03153004
0000c0 1d 34 d8 3c f6 8a 8e bc 86 1f d6 3e aa 6f 13 be
       0.026392037 -0.017400246 0.41820925 -0.14398065
0000d0 6d 2e 5f 3d 73 73 cf 3c d6 11 9d be 8d 38 0a 3e
       0.054487634 0.025323605 -0.3067767 0.13498135
0000e0 d3 8a 5f 3d 33 75 69 bc e9 28 a2 bc 7a 6c e2 3e
       0.054575752 -0.014249134 -0.019794898 0.44223386
0000f0 09 c4 a8 3d a1 a9 65 be 10 d3 1d 3e cd 69 24 bd
       0.08240516 -0.2242799 0.15412545 -0.040139962
000100 30 1e a3 3e 79 d7 df 3d ee 57 52 be 10 c3 73 bd
       0.3185897 0.1092977 -0.20541355 -0.059512198
000110 38 4c 70 bc 75 0a c9 3d 28 0b 14 3a 0f 82 e2 3c
       -0.0146666095 0.09816448 0.00056474144 0.027649907
000120 48 ca 31 ba d3 25 18 bd e3 b5 10 bc 6c 06 24 be
       -0.00067821564 -0.037145447 -0.008832428 -0.16018075
000130 14 05 9d be 7e 36 db bc e7 1b 2b be 47 59 68 3e
       -0.30667937 -0.026759382 -0.16709863 0.22690307
000140 0b 60 5d be 97 c1 0a bd cc c8 79 bd 49 32 d3 bd
       -0.21618669 -0.033876028 -0.06098251 -0.103123255
000150 6e a9 88 3d e2 0e 1b 3d dc d0 ea bd 3d e5 e0 3c
       0.06672941 0.03785599 -0.11465618 0.02745306
000160 2a a3 0f 3d 0e 4c 08 bd af 9f 94 3d 4b 8c 96 bd
       0.035067715 -0.033275656 0.0725702 -0.073509775
000170 1c 28 52 3d a0 38 07 bd 4c c9 07 bc f9 77 cd 3c
       0.051307783 -0.033012986 -0.008287739 0.025081621
000180 54 31 0a be 41 93 a5 bd ee 19 a4 bb bb 76 2e 3d
       -0.1349538 -0.08084727 -0.005007974 0.0425937
000190 0c 52 f8 bd 03 0f 98 3d d5 cb df bd a3 f2 8c bd
       -0.12125024 0.07424738 -0.1092755 -0.06882217
0001a0 cd 96 cc bd 46 31 91 3c 87 6c e7 bc 47 7e 1b bc
       -0.099897005 0.01772369 -0.028249992 -0.009490556
0001b0 02 98 ac bd 02 9f ba bd 0c 17 c4 3b ad b5 74 bc
       -0.08427431 -0.091123596 0.0059841927 -0.014935893
0001c0 f8 76 46 3d 98 e5 66 3d 30 57 c5 bd c5 e3 10 bc
       0.0484533 0.0563713 -0.0963577 -0.008843367
0001d0 e2 5c 81 3d 08 89 d4 bd 9a 45 31 3d 32 9b dd bd
       0.06316544 -0.10377699 0.043279268 -0.10820617
0001e0 05 0f 6c bc 05 64 fe bd dd bf 90 bd 1b b4 07 be
       -0.014407878 -0.12421421 -0.07067845 -0.13252299
0001f0 76 51 87 3d 37 7f c1 3c 10 54 93 3c 09 e4 1d bc
       0.06607334 0.023620231 0.01798442 -0.009636887
000200 6c 10 1c bc 17 ab 26 3d 97 00 b1 bd 3a 1d a6 3d
       -0.0095254 0.040690508 -0.08642691 0.08111043
000210 b3 74 fd bd e9 f4 81 3b b0 80 12 be b8 e3 8f bd
       -0.12375774 0.003965963 -0.14306903 -0.07025856
000220 f3 94 12 bd 2e f6 88 3c 0f af 9e 3d 13 60 1f 3d
       -0.03578658 0.01671895 0.077482335 0.038909983
000230 1f 15 fe bc 81 06 79 3c a5 75 ff 3b 2c 26 8b 3d
       -0.03101593 0.015199305 0.0077960067 0.0679439
000240 bd 85 23 bc a1 57 49 3d ab b5 a8 bc d0 a5 00 be
       -0.009980616 0.049155835 -0.020594439 -0.12563252
000250 5d 08 9f bd 76 65 04 be 09 95 8d bd 61 9e 6d bc
       -0.07765267 -0.1292933 -0.06913192 -0.0145030925
000260 a4 b7 a1 bd cf 28 94 bd 11 68 af bd 8a 94 12 3d
       -0.07896355 -0.07234346 -0.08564771 0.03578619
000270 a1 f4 37 bd f7 f1 20 bd f9 3d 24 bd ad 7d f7 bd
       -0.04491103 -0.039293256 -0.040098164 -0.12084518
000280 8d e0 01 be 54 03 fe bd 68 a2 f6 bd c3 63 f4 bc
       -0.12683316 -0.124029785 -0.12042695 -0.029832726
000290 4e 81 a9 bd 33 40 61 bd 7a de 9c bd 3d 54 7f 3d
       -0.08276616 -0.054992866 -0.076596215 0.062336195
0002a0 3e 7d 91 bd c0 37 1e 3e 89 07 c5 bd c2 c3 f2 bd
       -0.07103966 0.15450954 -0.09620578 -0.11853744
0002b0 3d e1 d5 3d a4 4b 24 bd c7 a9 92 bd 64 18 5e 3e
       0.104433514 -0.0401112 -0.07161289 0.21688992
0002c0 dc 7e 4f 3d 78 a4 96 3c bd 8e c6 bd 64 61 cf 3c
       0.050658092 0.018388972 -0.09695194 0.025314994
0002d0 37 4a 25 bd 0a 61 14 3a c2 e2 cd 3c 67 fd 8c 3e
       -0.04035398 0.0005660212 0.02513254 0.2753708
0002e0 e6 64 e4 3e 74 d8 be be 4b 7e 86 bd 42 a8 35 3e
       0.4460823 -0.37274516 -0.06567057 0.17739967
0002f0 98 40 56 3e cd ad 70 3e 5e e6 a6 3d 1d e9 0c bd
       0.20923078 0.235038 0.08149408 -0.034402
000300 f1 c6 11 3e ca 5b af bc 14 57 2a be 21 4f 86 3d
       0.14236046 -0.021406073 -0.1663478 0.065580614
000310 37 1b cc 3d 57 95 96 3e 1d 22 21 be 41 d7 4b be
       0.09966128 0.29410812 -0.1573567 -0.19906332
000320 c0 43 c2 bd 5f be 20 3d 8a a9 0b 3f fc fc 2e be
       -0.094855785 0.039244052 0.5455557 -0.17088693
000330 d5 8d 24 3e cb 62 35 be 00 be b9 bd a1 fc c8 bd
       0.1606973 -0.17713468 -0.09069443 -0.0981381
000340 20 94 cc bd 7c 15 df bd c4 48 92 bd 6e ed 16 3e
       -0.0998919 -0.1089277 -0.07142785 0.1473901
000350 b0 31 08 be 37 83 9e 3d 62 30 76 3d 3d 5a ee bd
       -0.13300204 0.07739871 0.060104735 -0.11638305
000360 e5 ec 2f 3e bd 0d f3 bd 13 30 a4 be 07 da 79 be
       0.17180212 -0.11867855 -0.32067928 -0.24399577
000370 34 d1 5d be 80 8e 12 be 4e f3 9e be f1 ad f0 be
       -0.21661836 -0.14312172 -0.31045002 -0.47007707
000380 02 5f 93 bd 9b ca fe bc 08 0e 9c be c7 e2 e2 bc
       -0.07195856 -0.03110247 -0.30479455 -0.027696026
000390 ee 68 19 3d 47 06 65 3e 2f 86 c2 3d ec f7 fe bb
       0.037453584 0.22365676 0.0949825 -0.0077810194
0003a0 55 78 84 be 71 26 bf 3d d3 46 02 3e 94 05 64 3d
       -0.25873056 0.09333504 0.1272233 0.055669382
0003b0 97 ee 6c be 1c 23 69 be 1b e7 c4 be 00 73 d2 bd
       -0.2313789 -0.227673 -0.3845757 -0.10275841
0003c0 23 d9 94 3e 75 ab 1f 3e 00 f4 f6 bc 90 d2 1e be
       0.29071912 0.1559275 -0.030145645 -0.1551001
0003d0 73 bc 10 3e 52 ce a9 3e 27 57 97 3d 0b b5 e1 3c
       0.14134388 0.33165222 0.0738967 0.027552148
0003e0 17 c4 cd bd 7a b9 1d 3e 2e 8d e8 bc d7 51 1a 39
       -0.10047167 0.15402785 -0.028387632 0.00014717072
0003f0 98 79 98 bd 06 c0 a3 3d 51 9d 2e 3d bf 56 0b 3e
       -0.07445067 0.0799561 0.042630497 0.1360731

fc4.bias f4 [84]
000000 97 51 c1 3d 24 9c 06 be a4 52 71 3d 3a a7 94 3e
       0.0943939 -0.131455 0.058916703 0.29033834
000010 59 c9 3c 3e c5 0a 0a be 21 15 94 3d 6b 96 b3 3c
       0.18436183 -0.13480671 0.072305925 0.02192231
000020 0f 2e 54 be 70 e3 2b 3e fb 40 48 bc 94 bc 52 3e
       -0.20720695 0.1678598 -0.012222524 0.2057975
000030 92 fa 46 bd 7a 90 14 be 68 11 0c be 52 cf d7 bc
       -0.048578806 -0.14508238 -0.13678515 -0.026343975
000040 2a c9 bf bd e6 a4 9f 3d 42 c9 09 3e 6d b5 8b bd
       -0.09364541 0.07795124 0.1345568 -0.068217136
000050 4d cb 76 3e 14 ac 4a 3e 50 3d 39 3e fa 0b 84 bc
       0.2410099 0.19792205 0.18089795 -0.016118992
000060 11 4f 51 be 77 ba 85 3c 72 be 7c bd 76 bc 6a 3e
       -0.20440318 0.016324265 -0.06170506 0.22923455
000070 58 c6 7a 3d 25 b9 a0 be f6 c2 ef 3d 2f ca 0f be
       0.06122431 -0.31391254 0.11707108 -0.1404197
000080 12 da 1c 3e 7a 5d 5f 3e f9 2f 1d 3e cf 33 a9 3e
       0.15317562 0.21813002 0.15350331 0.3304734
000090 49 12 1e be 71 1c 94 3e 45 b4 80 3e 8c 2f 9f be
       -0.15436663 0.2892795 0.25137535 -0.31090963
0000a0 92 7d 27 3d 80 8f 92 3e 63 f4 18 3e e1 08 35 3e
       0.040891238 0.28625107 0.14936976 0.17679168
0000b0 e5 d4 23 3e 94 f7 51 bd 34 38 d1 bc 04 aa 11 be
       0.15999182 -0.0512615 -0.025539495 -0.14225012
0000c0 9d 85 08 3e 60 13 d5 bd 17 fe bb 3c 71 46 3c bd
       0.1333222 -0.10404086 0.022948308 -0.045965616
0000d0 c2 89 d6 bc 6b c9 a4 bd 67 ce 17 bd 91 f1 13 3e
       -0.026188735 -0.0804623 -0.037062075 0.14447619
0000e0 78 f9 85 3d b4 28 68 3e 4d 25 31 3c 58 3d f7 3e
       0.06541723 0.22671777 0.010812116 0.4828899
0000f0 6b b2 56 3c fd 72 64 bd b1 53 ec bd 9f 0f 0a be
       0.013104062 -0.055773724 -0.115394 -0.13482521
000100 23 2c 56 be 84 55 62 3d 41 65 ea 3d df 04 98 3e
       -0.20915274 0.055257335 0.11445094 0.29691216
000110 b5 6e a7 bd ae d2 e1 3d 88 4c ba 3e 80 d9 01 3e
       -0.081754126 0.11026512 0.36386514 0.12680626
000120 c9 de 6a bc f7 5f 95 bd 1d fe 0b 3e 7f 16 98 3e
       -0.014335343 -0.072936945 0.13671155 0.29704663
000130 81 93 12 be 56 0a e4 bd 2d 7b aa bd 37 54 e6 bd
       -0.14314081 -0.11134784 -0.08324275 -0.112465315
000140 27 af 90 3d 38 94 65 3d 39 67 2c bd 03 2d a9 3d
       0.07064658 0.056049556 -0.04209063 0.082605384
